app/net/net.pth (torch_old, 68192 bytes, 19 tensors)

fc1.weight f4 [42, 43]
0.029857906 0.07768786 0.088036455 -0.072963186 -0.08164565 0.12658666 0.12549122 0.15431197
0.10284343 -0.03884788 0.06420245 0.04547039 0.07805011 0.0043555675 0.033464868 -0.12704116
-0.13110013 0.052556466 -0.10398526 -0.008284264 -0.07102509 -0.042135328 0.07542891 0.023998506
-0.0035619822 -0.069680616 0.04032312 0.10615605 0.08648331 -0.09377234 0.03902481 -0.006687984
0.08086048 -0.044215802 -0.08655286 0.0228208 -0.029289097 -0.13573015 0.054544207 0.07382867
0.109123856 -0.03072725 0.104320824 -0.059419163 -0.005140329 -0.07550584 0.02152912 -0.04288985
0.094349064 0.15843707 -0.064023346 -0.045299698 -0.036442395 0.052024357 -0.1494141 0.07252577
-0.015248575 0.15254436 0.007162683 0.038994603 0.12754723 0.0061940225 0.007984381 0.061627712
-0.0425662 0.07894764 0.11111649 -0.1068677 -0.11203669 0.16186881 0.026010415 0.13486202
-0.13534816 0.10620274 0.09509192 -0.006911125 0.17220935 -0.12277571 -0.08769669 -0.13405459
-0.074948765 -0.07927513 0.17106436 -0.05998693 0.073160656 -0.09003975 -0.081834175 0.037342653
-0.1582414 0.07869868 -0.048501514 -0.029966516 0.08535161 0.07065955 0.12727237 0.068808205
0.13337064 -0.13040467 0.12056095 -0.10148976 0.032792773 -0.14436695 -0.066651545 0.008125606
0.08531765 0.17362854 -0.028681416 -0.072074875 -0.045808136 -0.13791132 0.020118771 0.064884394
-0.0135976635 0.09367158 -0.05912037 0.017276572 -0.05294045 -0.1183159 0.12799363 -0.09877899
0.12942468 0.04944708 -0.12456439 0.093052045 -0.00048889004 0.13083212 0.070824035 -0.08808503
-0.07974996 -0.11358747 0.01694086 -0.11539152 0.094876654 0.08618374 0.116548635 -0.09772406
-0.011242196 0.09521015 -0.07056738 0.010122227 0.09299524 0.10063625 -0.05929999 -0.10756493
0.14794937 0.008704576 -0.08082961 -0.1441192 -0.0037447999 -0.06395408 0.017974783 -0.026043795
-0.13075122 0.04600462 -0.07158197 -0.10530478 0.10137442 -0.0669664 -0.08423635 -0.03514666
-0.07841708 0.14271678 -0.078087024 -0.05554834 -0.022984808 0.13555431 -0.13879983 -0.13831623
0.03381627 0.12951796 -0.087809 0.13879605 -0.103819005 0.07814583 -0.17142454 0.09148703
-0.11243401 -0.11247369 -0.015279419 0.1271038 0.05410959 0.08960425 0.0917439 0.07209918
-0.033054303 -0.1325507 -0.049100462 -0.12517275 0.054125097 0.08848271 -0.099204615 0.09028366
-0.13101168 0.05061757 0.13321736 0.009264942 -0.13342421 -0.12938909 0.0024370668 -0.13852282
0.15383379 0.1446389 0.11669672 0.08424199 0.095175356 -0.07081719 -0.035958357 0.10078506
0.14133373 0.11438765 -0.12618333 0.086626396 -0.041287657 0.10028253 -0.023730129 -0.04526838
0.0017099739 -0.10304081 0.09112518 0.024896052 -0.009717161 -0.05542475 -0.117670536 0.021275764
0.13757096 -0.020793676 0.14420035 0.06099695 -0.053727202 -0.060551964 -0.049369443 0.13681926
0.003608361 0.0922622 -0.151003 -0.05113691 -0.09381886 -0.06895188 -0.10517729 -0.07988017
0.049198538 -0.081930414 0.07196724 -0.09196014 0.13002738 0.11892919 0.15239331 -0.13933298
-0.11607311 -0.07025923 -0.13211328 -0.11862823 -0.09848685 0.13747874 -0.059454277 0.015916595
00000000: 9198 f43c d01a 9f3d 754c b43d b96d 95bd
00000010: d635 a7bd ef9f 013e c580 003e f503 1e3e
00000020: 949f d23d f41e 1fbd 937c 833d 293f 3a3d
00000030: bcd8 9f3d 26b9 8e3b 7512 093d 1417 02be
00000040: 1d3f 06be 7345 573d 39f6 d4bd b9ba 07bc
00000050: 9a75 91bd 1896 2cbd 797a 9a3d 8498 c43c
00000060: 2570 69bb b6b4 8ebd db29 253d 5868 d93d
00000070: 291e b13d b60b c0bd 7bd8 1f3d e026 dbbb
00000080: 2e9a a53d a11b 35bd a042 b1bd b0f2 ba3c
00000090: b0ef efbc d8fc 0abe bf69 5f3d 7c33 973d
000000a0: 547c df3d b7b7 fbbc 28a6 d53d 8261 73bd
000000b0: 3470 a8bb cea2 9abd d65d b03c 44ad 2fbd
000000c0: 153a c13d 543d 223e ac1e 83bd 2d8c 39bd
000000d0: 9f44 15bd 7e17 553d 0300 19be 6488 943d
000000e0: 29d5 79bc 9734 1c3e f1b4 ea3b ceb8 1f3d
000000f0: be9b 023e 3af7 ca3b ecd0 023c 576d 7c3d
00000100: e559 2ebd 4daf a13d 0b91 e33d 74dd dabd
00000110: 7e73 e5bd f0c0 253e cb13 d53c 4519 0a3e
00000120: b598 0abe d280 d93d 8dbf c23d b876 e2bb
00000130: a657 303e d571 fbbd 529a b3bd 9b45 09be
00000140: bd7e 99bd 005b a2bd 7f2b 2f3e dbb4 75bd
00000150: 41d5 953d c366 b8bd ad98 a7bd 9cf4 183d
00000160: 090a 22be c62c a13d 86a9 46bd 577c f5bc
00000170: d3cc ae3d f4b5 903d b053 023e 51eb 8c3d
00000180: 5092 083e cd88 05be a9e8 f63d ddd9 cfbd
00000190: b751 063d eed4 13be 9b80 88bd 4321 053c
000001a0: 05bb ae3d aecb 313e 4af5 eabc fe9b 93bd
000001b0: 50a1 3bbd a038 0dbe 1fd0 a43c 1ce2 843d
000001c0: bcc8 5ebc e3d6 bf3d 3328 72bd 9987 8d3c
000001d0: 16d8 58bd 9b4f f2bd c310 033e a44c cabd
000001e0: e787 043e 0589 4a3d 9d1b ffbd 1292 be3d
000001f0: db28 00ba dbf8 053e 310c 913d ed65 b4bd
00000200: f253 a3bd 8ca0 e8bd 8fc7 8a3c 6452 ecbd
00000210: b14e c23d 1a81 b03d 0db1 ee3d 8d23 c8bd
00000220: 3031 38bc 8afd c23d a185 90bd b2d7 253c
00000230: 4a74 be3d 611a ce3d 8ce4 72bd 014b dcbd
00000240: 0a80 173e a39d 0e3c ff89 a5bd fc93 13be
00000250: 516b 75bb 5bfa 82bd da3f 933c cc59 d5bc
00000260: a6e3 05be 576f 3c3d 9199 92bd 08aa d7bd
00000270: 649d cf3d ae25 89bd 1c84 acbd f2f5 0fbd
00000280: 2299 a0bd 5924 123e 17ec 9fbd a886 63bd
00000290: a34a bcbc c0ce 0a3e 8b21 0ebe c5a2 0dbe
000002a0: ee82 0a3d 5ba0 043e 34d5 b3bd 8d20 0e3e
000002b0: 0f9f d4bd ec0a a03d ea89 2fbe 8d5d bb3d
000002c0: cd43 e6bd 9b58 e6bd 8756 7abc 8027 023e
000002d0: 04a2 5d3d 6f82 b73d 3ae4 bb3d bca8 933d
000002e0: f363 07bd 5fbb 07be 911d 49bd 492d 00be
000002f0: 47b2 5d3d 6c36 b53d ca2b cbbd a4e6 b83d
00000300: ed27 06be 5e54 4f3d 226a 083e fccb 173c
00000310: 5ba0 08be 937e 04be 32b7 1f3b edd8 0dbe
00000320: 9b86 1d3e 381c 143e b1fe ee3d 1087 ac3d
00000330: 4ceb c23d 9a08 91bd 1249 13bd 6668 ce3d
00000340: cab9 103e 1244 ea3d 3436 01be 2e69 b13d
00000350: 3f1d 29bd ed60 cd3d b065 c2bc 566b 39bd
00000360: 3421 e03a 0f07 d3bd d79f ba3d cef2 cb3c
00000370: ba34 1fbc 1005 63bd 40fd f0bd 834a ae3c
00000380: 67df 0c3e 8057 aabc 42a9 133e f0d7 793d
00000390: 0e11 5cbd 5605 78bd 9d37 4abd 591a 0c3e
000003a0: 407a 6c3b f7f3 bc3d 88a0 1abe f074 51bd
000003b0: 1a24 c0bd a536 8dbd 3167 d7bd 3798 a3bd
000003c0: 6884 493d 22cb a7bd 8f63 933d 9955 bcbd
000003d0: e625 053e 2691 f33d fe0c 1c3e 4ead 0ebe
000003e0: bdb7 edbd 12e4 8fbd b448 07be 5cf3 f2bd
000003f0: 79b3 c9bd 3ac7 0c3e 5486 73bd 8563 823c

fc1.bias f4 [42]
0.11305058 -0.04343659 0.08919866 0.1820993 0.024914162 -0.113568045 -0.13755356 0.1783727
-0.050169747 -0.0752249 0.14385341 0.1676287 0.12961696 -0.03548615 -0.09106868 -0.11505689
0.19215567 0.115834944 -0.10771659 0.108910635 -0.10190925 0.12628795 -0.12176798 -0.041807193
0.18879384 0.12631989 0.1087205 -0.035274018 -0.13984679 -0.13817935 0.16311608 0.016172325
-0.077174805 -0.021536397 0.030356126 0.0034930536 0.085727364 -0.0649545 0.094370395 0.02870379
-0.05087866 0.08535129
00000000: 1087 e73d 91ea 31bd c9ad b63d 3d78 3a3e
00000010: c918 cc3c 5d96 e8bd d7da 0cbe 55a7 363e
00000020: cb7e 4dbd 830f 9abd 4f4e 133e dca6 2b3e
00000030: 4fba 043e ed59 11bd 3782 babd f2a2 ebbd
00000040: 75c4 443e df3a ed3d 849a dcbd 8a0c df3d
00000050: ccb5 d0bd a151 013e 7e61 f9bd 053e 2bbd
00000060: 2c53 413e 005a 013e daa8 de3d 7d7b 10bd
00000070: ff33 0fbe e37e 0dbe e707 273e d37b 843c
00000080: d30d 9ebd 196d b0bc 69ad f83c b7eb 643b
00000090: d491 af3d dd06 85bd 4445 c13d 3624 eb3c
000000a0: 2466 50bd a8cc ae3d

fc2.weight f4 [42, 42]
0.06250447 -0.023810674 0.0069278455 -0.10416737 0.1579267 -0.04767933 -0.1350238 0.07741278
0.0859866 -0.1079154 -0.037615944 -0.015094797 0.0025914253 0.0784109 -0.115431696 0.115849316
0.14667407 0.16710384 0.08392873 -0.08646089 -0.08280802 -0.03762626 0.1799756 0.16343497
0.16259521 -0.11109365 -0.10666116 0.016790897 -0.016844114 -0.14022182 -0.03865963 -0.09030969
0.064193815 -0.11470617 0.01267349 -0.12208255 0.0090698395 0.090693556 -0.09796377 -0.09178736
-0.0005007667 0.023074465 0.117056616 0.007541756 0.13271175 0.09911785 0.044947226 0.09945034
0.02586544 -0.0015312069 0.15608463 0.10127448 0.021715745 0.10437004 0.01796762 -0.08118045
0.11623219 0.04309368 -0.01717453 -0.054367945 0.081915684 -0.06817104 -0.036084753 0.20513238
0.09456185 -0.021756718 0.06777068 -0.06952944 0.088910654 -0.05513566 0.022746699 0.032463197
0.07695226 -0.07184886 -0.120765544 0.15438576 0.00087451667 -0.00532852 -0.050586283 -0.120221466
0.07179909 0.022282593 0.18061471 0.1061356 -0.1160791 0.0618492 0.14516492 -0.065991506
0.126483 -0.04804318 0.06603925 0.18798906 0.005657194 0.04046345 0.1764818 -0.09922583
0.10883804 -0.089395024 0.19069411 0.014833431 0.05228576 0.106445946 -0.08105745 0.08246132
-0.18491787 -0.0420437 0.091480926 0.089400835 0.033351105 0.0568817 0.18264006 0.13916047
0.052952684 -0.124036685 0.014143277 -0.023994887 -0.008289744 0.04378151 0.1147597 -0.12163
0.029510278 -0.02492788 -0.006837332 -0.095837496 0.060794476 0.045523778 -0.022136696 -0.083454855
0.018355656 0.06170964 -0.016854728 -0.15086548 0.08309143 -0.15357418 0.14251232 0.11854973
-0.0699138 -0.007811691 0.043240637 0.055470176 0.08657809 -0.032135103 -0.03603503 -0.12438967
0.08918752 0.009539531 0.056378745 0.0015474904 -0.11317782 -0.05481445 -0.12222265 0.075542524
0.10565499 -0.11071288 0.0009780678 -0.1207834 0.06421732 -0.06748606 -0.14280409 -0.047992174
0.010036138 0.12149339 0.027168332 0.10313185 -0.10790426 -0.018443776 -0.103896946 -0.07209111
0.027505632 0.11331241 -0.0009635548 0.16064386 0.19949318 0.05555539 -0.03001992 -0.07960877
-0.071049675 0.17100558 0.107255206 -0.07473224 0.10790476 -0.0073029273 -0.0282357 0.14992791
0.10010355 -0.039730247 -0.07122556 -0.097391054 -0.03907805 -0.08325203 0.1069268 0.067686416
0.03991888 -0.030317882 -0.02478057 -0.07385991 -0.088921286 -0.044004563 0.001996901 0.044440657
-0.0865635 0.16970824 -0.102459215 0.0830167 -0.11652528 0.11468148 -0.093805574 0.13029972
0.046085533 -0.01963215 0.046526827 -0.13883935 -0.043337546 -0.05921967 0.052946165 -0.115876846
0.03880819 -0.024257388 0.141078 0.09831533 0.07193679 -0.09265111 0.06785537 -0.0296027
-0.038716797 -0.13742808 0.094213024 -0.08026132 -0.09834063 -0.09649943 -0.09606446 0.13457133
-0.10302884 -0.036062654 -0.04094838 -0.012088333 -0.16304736 0.09084959 -0.06549495 -0.094238415
-0.09016364 -0.15009227 0.12451229 0.13263151 0.023487981 -0.02184746 0.013918581 -0.020241654
-0.05818101 -0.062437177 -0.1033804 0.08393284 -0.0028048968 0.08171863 0.052996695 -0.061344832
00000000: 5802 803d 9a0e c3bc fb02 e33b b455 d5bd
00000010: 89b7 213e 674b 43bd ae43 0abe 978a 9e3d
00000020: be19 b03d c002 ddbd 2d13 1abd 2b50 77bc
00000030: e7d4 293b e595 a03d 7467 ecbd 6842 ed3d
00000040: ba31 163e 451d 2b3e d3e2 ab3d 6812 b1bd
00000050: 4097 a9bd fe1d 1abd 864b 383e 7f5b 273e
00000060: 5c7f 263e 1185 e3bd 2b71 dabd 108d 893c
00000070: abfc 89bc 4f96 0fbe 8f59 1ebd 49f4 b8bd
00000080: 0c78 833d 12eb eabd 78a4 4f3c 6a06 fabd
00000090: aa99 143c 8bbd b93d 3ba1 c8bd 03fb bbbd
000000a0: e245 03ba a906 bd3c 61bb ef3d d620 f73b
000000b0: 97e5 073e 4dfe ca3d 951a 383d 9fac cb3d
000000c0: c2e3 d33c c7b2 c8ba a6d4 1f3e ff68 cf3d
000000d0: 38e5 b13c f6bf d53d d530 933c f041 a6bd
000000e0: 240b ee3d 0083 303d 9ab1 8cbc ecb0 5ebd
000000f0: 69c3 a73d 429d 8bbd 9bcd 13bd 390e 523e
00000100: a5a9 c13d 253b b2bc 5bcb 8a3d 7365 8ebd
00000110: ca16 b63d eed5 61bd 4957 ba3c 21f8 043d
00000120: 2699 9d3d 7f25 93bd ed53 f7bd 4d17 1e3e
00000130: d23f 653a de9a aebb 9033 4fbd ac36 f6bd
00000140: 670b 933d fc89 b63c 10f3 383e 9f5d d93d
00000150: e1ba edbd 9655 7d3d 1da6 143e 8e26 87bd
00000160: c284 013e edc8 44bd 963f 873d 3480 403e
00000170: fc5f b93b 01bd 253d a5b7 343e e936 cbbd
00000180: 7ae6 de3d bd14 b7bd 5145 433e eb07 733c
00000190: 9829 563d 5500 da3d 7301 a6bd 7be1 a83d
000001a0: 1c5b 3dbe 0436 2cbd 5a5a bb3d c917 b73d
000001b0: 2b9b 083d c9fc 683d ff05 3b3e 1580 0e3e
000001c0: eae4 583d f206 febd 34b9 673c ed90 c4bc
000001d0: b5d1 07bc 3e54 333d 2207 eb3d 2619 f9bd
000001e0: 8abf f13c 8e35 ccbc b30b e0bb 7346 c4bd
000001f0: a103 793d 2477 3a3d 0458 b5bc 61ea aabd
00000200: 9a5e 963c 3fc3 7c3d ed12 8abc 7b7c 1abe
00000210: d72b aa3d 8d42 1dbe c0ee 113e 33ca f23d
00000220: f72e 8fbd 37f9 ffbb 181d 313d b234 633d
00000230: db4f b13d 19a0 03bd 7899 13bd 03c0 febd
00000240: f2a7 b63d b14b 1c3c 66ed 663d 29d5 ca3a
00000250: c6c9 e7bd 1e85 60bd de4f fabd 0ab6 9a3d
00000260: a561 d83d 6fbd e2bd 8232 803a 4a5d f7bd
00000270: 5f84 833d 2236 8abd 3c3b 12be 7193 44bd
00000280: 9d6e 243c 87d1 f83d 1f90 de3c cb36 d33d
00000290: e9fc dcbd 6717 97bc ecc7 d4bd 81a4 93bd
000002a0: 7e53 e13c 5610 e83d 1197 7cba d37f 243e
000002b0: f147 4c3e 0c8e 633d 56ec f5bc ec09 a3bd
000002c0: 7e82 91bd 161c 2f3e 9ea8 db3d 370d 99bd
000002d0: 2cfd dc3d 654d efbb 8e4e e7bc b486 193e
000002e0: 1703 cd3d 2fbc 22bd b5de 91bd f674 c7bd
000002f0: 4e10 20bd 0a80 aabd 70fc da3d 2d9f 8a3d
00000300: fb81 233d 355d f8bc 9f00 cbbc dd43 97bd
00000310: 5d1c b6bd 213e 34bd 70de 023b 6807 363d
00000320: 3448 b1bd ffc7 2d3e 23d6 d1bd a904 aa3d
00000330: cea4 eebd 20de ea3d 231d c0bd 4a6d 053e
00000340: 2fc4 3c3d 9ad3 a0bc ea92 3e3d e72b 0ebe
00000350: b682 31bd 5390 72bd 14de 583d d750 edbd
00000360: 56f5 1e3d 6eb7 c6bc c076 103e 8c59 c93d
00000370: 9953 933d ddbf bdbd c2f7 8a3d 5d81 f2bc
00000380: 8195 1ebd f2b9 0cbe c2f2 c03d 0c60 a4bd
00000390: d066 c9bd 7ea1 c5bd 72bd c4bd 11cd 093e
000003a0: c900 d3bd 6fb6 13bd 7db9 27bd 250e 46bc
000003b0: e3f5 26be 5a0f ba3d 3722 86bd 1200 c1bd
000003c0: b7a7 b8bd cab1 19be 4d00 ff3d 8ed0 073e
000003d0: de69 c03c 72f9 b2bc c30a 643c d3d1 a5bc
000003e0: 364f 6ebd 20be 7fbd 1ab9 d3bd fbe4 ab3d
000003f0: 5cd2 37bb 195c a73d 1013 593d b844 7bbd

fc2.bias f4 [42]
0.040078297 0.036202125 0.1665512 -0.07666369 0.04050141 0.007745311 -0.02249195 0.12904769
0.17609607 -0.15032925 0.1818689 -0.14576527 0.009736359 0.098512635 0.11484767 -0.03483441
-0.09778818 -0.1500323 -0.055126883 0.037288785 0.11845869 -0.021571487 -0.0022171412 0.09317863
-0.022315385 0.058269147 0.06263446 -0.0014545087 0.17345132 -0.12112116 0.07065484 -0.103790216
0.02907254 0.07071117 0.12299275 -0.03606254 0.015620367 0.09461601 0.112227 -0.09354086
0.107568696 -0.16794613
00000000: 2429 243d ae48 143d 668c 2a3e da01 9dbd
00000010: cee4 253d 61cc fd3b 0a41 b8bc 1425 043e
00000020: 8752 343e e9ef 19be d73b 3a3e 7e43 15be
00000030: 4085 1f3c fec0 c93d 4135 eb3d 87ae 0ebd
00000040: 2b45 c8bd 11a2 19be bacc 61bd 20bc 183d
00000050: 789a f23d b0b6 b0bc 754d 11bb 70d4 be3d
00000060: c1ce b6bc a1ab 6e3d 7f46 803d 37a5 beba
00000070: 399d 313e 5f0e f8bd 7cb3 903d f78f d4bd
00000080: 8929 ee3c 05d1 903d 9fe3 fb3d 50b6 13bd
00000090: 91ec 7f3c 0ac6 c13d 45d7 e53d 5a92 bfbd
000000a0: fa4c dc3d 12fa 2bbe

fc3.weight f4 [42, 42]
-0.01841965 -0.020733332 -0.091995664 0.06347394 0.08200759 -0.120396934 -0.06797828 0.022201646
0.1011244 0.11704849 -0.09466371 0.06777614 0.1388543 -0.064172335 0.057375997 -0.0025383667
-0.082803495 0.10097798 0.050570175 0.12014411 -0.04850924 -0.14686117 -0.0075024874 0.018500572
0.111330114 -0.11161865 -0.0584601 0.1645222 0.144837 -0.13859896 0.13925372 -0.06729833
0.0185232 -0.054283436 0.124526486 0.06319125 0.13226153 0.008338355 0.03042202 0.019624751
0.060942657 -0.031754706 -0.14101402 0.07342145 0.056820083 0.1557819 0.032004572 -0.0600888
0.04350992 0.071684375 -0.017672766 -0.12932701 0.20503464 -0.10567809 0.021911796 0.017152939
0.06928397 -0.025737474 0.12712972 0.101510234 0.0006308662 -0.113389425 -0.06855684 0.04160501
0.01894224 -0.03533325 0.012806461 0.1546964 0.1157256 -0.0018094331 0.056177966 -0.19855998
-0.049393415 -0.11982598 0.07744895 -0.03185827 -0.038526576 -0.060926422 0.20833531 0.11072777
0.08011322 -0.035133757 0.13058539 0.012042151 -0.025105387 0.07343191 0.037516102 -0.012918964
0.07180378 0.03302425 0.048800528 0.0869873 -0.10799917 -0.029496364 -0.1521322 0.012701884
-0.13598749 0.11130719 0.044136018 0.0136259645 0.10110192 -0.08888703 0.0039019138 0.05833125
-0.10043521 0.10040395 0.030560628 0.10151453 0.030417055 -0.1508568 -0.04856135 -0.08069935
-0.15155016 0.117660984 -0.036790624 0.017423406 0.12859775 0.011957437 0.07493551 -0.11417347
-0.14976847 0.13333075 -0.11159773 -0.06362472 0.08376227 0.003949508 0.16212697 0.16510792
-0.029438123 -0.052762475 0.062260497 0.08528351 -0.13959299 0.100289986 -0.1265414 0.06601946
0.026652077 -0.10990998 0.047209553 -0.0700764 -0.021624792 0.01677568 -0.13142744 -0.030885903
-0.02355872 -0.030203344 0.014691203 0.008657426 0.050671846 0.06371581 -0.018949214 0.04335895
-0.05114531 0.17848289 -0.023122704 -0.00941788 0.039762102 -0.13362813 -0.10089995 0.075183325
-0.1334497 0.08428302 0.11966464 0.102310404 0.13582434 0.12525871 -0.021987578 0.054503925
-0.00307177 0.12977712 0.13258933 0.11460836 0.024792224 0.05393292 -0.11123846 -0.15190484
0.027563408 -0.13435118 0.07737495 0.090118304 -0.12184444 -0.002078265 -0.058797695 0.018368855
-0.14594106 0.09755851 -0.040756166 -0.06021686 -0.018104926 -0.098875076 -0.08844878 0.02958782
0.12877266 0.051692367 -0.018178225 0.089524284 0.063871056 0.033361375 -0.07875308 -0.015339896
0.023738459 -0.024720758 -0.14386971 -0.08963647 0.029433832 -0.110271856 0.009406522 -0.028295934
0.09600313 0.09970082 0.112436086 0.065098606 -0.09559864 0.004880728 -0.020724932 -0.12789957
-0.0056776064 0.16668251 0.08073452 0.11176799 0.15523906 -0.09158048 -0.061013035 0.1388108
0.0751974 0.100547224 0.0035555826 -0.10675879 -0.013936138 0.16525128 0.13381973 0.0537643
0.038879212 0.038163237 -0.0634628 -0.13408741 -0.06371516 0.06753667 0.08388513 -0.17846446
-0.07263451 -0.10991023 0.001237215 0.067962244 -0.039980616 0.034133535 0.056226823 -0.044632412
-0.0730257 0.027959626 0.17189798 -0.066658005 -0.13868298 -0.06452337 0.049941976 -0.04304332
00000000: cee4 96bc f3d8 a9bc 3968 bcbd a0fe 813d
00000010: 98f3 a73d ab92 f6bd 3238 8bbd 3ae0 b53c
00000020: 4f1a cf3d 1eb7 ef3d 0cdf c1bd 38ce 8a3d
00000030: d22f 0e3e c96c 83bd 1803 6b3d ba5a 26bb
00000040: e194 a9bd 8bcd ce3d ac22 4f3d 1d0e f63d
00000050: a0b1 46bd c662 16be 6dd7 f5bb 838e 973c
00000060: 0b01 e43d 5298 e4bd dc73 6fbd 8278 283e
00000070: 2750 143e e3ec 0dbe 8798 0e3e b5d3 89bd
00000080: f7bd 973c 4f58 5ebd be07 ff3d 6a6a 813d
00000090: 916f 073e 999d 083c 9a37 f93c 16c4 a03c
000000a0: 029f 793d 3911 02bd fb65 10be fc5d 963d
000000b0: 2dbc 683d 4a85 1f3e 3a17 033d ac1f 76bd
000000c0: 7537 323d 42cf 923d 7ac6 90bc 4d6e 04be
000000d0: 9af4 513e c16d d8bd 5e80 b33c 5284 8c3c
000000e0: c1e4 8d3d 65d7 d2bc 4b2e 023e 99e4 cf3d
000000f0: b760 253a b738 e8bd 8767 8cbd 046a 2a3d
00000100: c22c 9b3c 99b9 10bd 31d2 513c bc68 1e3e
00000110: 8b01 ed3d 802a edba de1a 663d 4f53 4bbe
00000120: c050 4abd 5367 f5bd 8e9d 9e3d d17d 02bd
00000130: 0bce 1dbd fc8d 79bd da55 553e 3ec5 e23d
00000140: 6612 a43d 6ae8 0fbd 2db8 053e 714c 453c
00000150: d0a9 cdbc 7863 963d 7caa 193d 10aa 53bc
00000160: dc0d 933d 7044 073d 10e3 473d 6626 b23d
00000170: ab2e ddbd 5ca2 f1bc 8bc8 1bbe 901b 503c
00000180: 4e40 0bbe 06f5 e33d f8c7 343d 703f 5f3c
00000190: 860e cf3d 670a b6bd 40b7 7f3b c0ec 6e3d
000001a0: fab0 cdbd 96a0 cd3d 485a fa3c dae6 cf3d
000001b0: 302d f93c 347a 1abe 44e8 46bd b345 a5bd
000001c0: f72f 1bbe 3ef8 f03d c4b1 16bd 88bb 8e3c
000001d0: 21af 033e 20e9 433c ca77 993d c8d3 e9bd
000001e0: e85c 19be db87 083e 5a8d e4bd ad4d 82bd
000001f0: 8e8b ab3d e06a 813b 9d04 263e 0d12 293e
00000200: 3828 f1bc 771d 58bd dd04 7f3d 1fa9 ae3d
00000210: 77f1 0ebe d664 cd3d 1294 01be 3635 873d
00000220: 7555 da3c 7c18 e1bd ce5e 413d 3784 8fbd
00000230: 7a26 b1bc 276d 893c ea94 06be 6f04 fdbc
00000240: 37fe c0bc 016d f7bc 5fb3 703c e0d7 0d3c
00000250: 488d 4f3d 6f7d 823d 623b 9bbc 2899 313d
00000260: bf7d 51bd 38c4 363e d36b bdbc 744d 1abc
00000270: 96dd 223d d0d5 08be a2a4 cebd b7f9 993d
00000280: 0aa7 08be 939c ac3d bc12 f53d 1e88 d13d
00000290: 8915 0b3e d243 003e 4b1f b4bc 823f 5f3d
000002a0: c04f 49bb 4be4 043e 7fc5 073e cab7 ea3d
000002b0: 1019 cb3c c4e8 5c3d fdd0 e3bd f18c 1bbe
000002c0: a8cc e13c 5b93 09be c276 9e3d f28f b83d
000002d0: 9489 f9bd 8033 08bb dad5 70bd 487a 963c
000002e0: 9371 15be c2cc c73d f0ef 26bd f4a5 76bd
000002f0: c850 94bc 047f cabd a224 b5bd 2862 f23c
00000300: fbdc 033e 60bb 533d 80ea 94bc 8258 b73d
00000310: d4ce 823d f0a5 083d 4b49 a1bd 3054 7bbc
00000320: 2877 c23c 3083 cabc 9552 13be 5393 b7bd
00000330: 381f f13c 36d6 e1bd d01d 1a3c e0cc e7bc
00000340: 4a9d c43d f22f cc3d e444 e63d 6b52 853d
00000350: 38c9 c3bd 84ee 9f3b 55c7 a9bc 1bf8 02be
00000360: 370b babb d2ae 2a3e 2458 a53d 9ee6 e43d
00000370: fdf6 1e3e 8c8e bbbd cee8 79bd 6b24 0e3e
00000380: 1801 9a3d b4eb cd3d c704 693b 5aa4 dabd
00000390: 6654 64bc a237 293e 0a08 093e f437 5c3d
000003a0: cf3f 1f3d 0e51 1c3d c9f8 81bd 364e 09be
000003b0: 187d 82bd aa50 8a3d f8cb ab3d 63bf 36be
000003c0: 67c1 94bd 9d18 e1bd 0c2a a23a ca2f 8b3d
000003d0: b7c2 23bd 9bcf 0b3d 194e 663d 7ad0 36bd
000003e0: 808e 95bd 960b e53c 0606 303e fe83 88bd
000003f0: e902 0ebe d424 84bd f58f 4c3d 314e 30bd

fc3.bias f4 [42]
0.15956701 0.10714717 -0.018631503 -0.13014987 -0.091693 0.1581774 -0.037280757 -0.06973633
-0.050783865 -0.09123124 -0.09525032 0.13360997 -0.08526158 0.06256792 -0.10351454 -0.13574705
0.092152484 0.14798252 0.074698105 -0.09316112 0.054988597 -0.0006328264 0.15414952 0.15912847
0.14296415 -0.14088427 0.028731262 -0.0806616 0.16744016 -0.0072598355 0.10603903 0.038294513
-0.024604334 0.058176167 -0.012253846 -0.054177213 -0.139004 -0.08473254 0.14588328 0.054927215
-0.006401047 0.14315845
00000000: 8965 233e fa6f db3d 18a1 98bc 0246 05be
00000010: 8ac9 bbbd 42f9 213e b5b3 18bd ecd1 8ebd
00000020: be02 50bd 72d7 babd 9a12 c3bd 0dd1 083e
00000030: a09d aebd 9c23 803d 6eff d3bd 4601 0bbe
00000040: 71ba bc3d bb88 173e 52fb 983d 42cb bebd
00000050: b93b 613d 43e4 25ba 5fd9 1d3e 93f2 223e
00000060: 3265 123e f743 10be d35d eb3c e931 a5bd
00000070: 6f75 2b3e eae3 edbb fe2a d93d b5da 1c3d
00000080: 078f c9bc 224a 6e3d 5bc4 48bc ede8 5dbd
00000090: 1157 0ebe 4188 adbd 6d62 153e 5cfb 603d
000000a0: e0bf d1bb 2198 123e

fc4.weight f4 [42, 42]
0.13933973 0.07268772 -0.079240106 -0.064793445 -0.017376393 0.05021277 0.02269836 0.09298821
0.04190583 -0.14653814 -0.059800483 0.031133793 0.047043193 -0.116180964 -0.005038753 0.0668665
-0.15622294 0.13134308 0.13094586 0.07991266 -0.030274479 0.11325621 -0.009825085 -0.12270547
0.032656 0.02717109 0.12239147 0.0028748661 -0.042178083 -0.106175736 -0.11917991 0.07553202
-0.14979294 -0.10662318 -0.103961095 -0.102351815 -0.11594678 -0.0026382208 -0.11452678 -0.008450248
0.14420812 0.08418646 0.036324233 -0.026763856 0.09273878 0.028998777 0.106308445 0.041925013
-0.033122033 0.15196754 0.1052181 0.1221682 -0.05359865 -0.012944996 0.060353696 -0.11369006
0.10766713 -0.08894892 -0.0654616 0.07427634 -0.12921439 0.013489857 0.037519246 0.13752036
-0.070534274 0.024195135 0.034134626 -0.10613203 -0.07378998 -0.10394044 -0.13742524 -0.061671674
-0.029587932 -0.14636135 0.11852397 0.13118608 -0.07258742 0.106751874 -0.030680485 -0.06609552
-0.14135619 0.11276494 0.04192069 0.10211523 0.025877342 -0.12516086 0.009884551 0.111298874
-0.035199367 0.120023206 -0.1250635 0.081982285 -0.1510855 0.014832497 0.051012084 -0.11094087
0.11878912 -0.069699116 -0.022671342 -0.10764164 0.09340182 -0.025578305 0.020750463 0.03101559
0.14592512 -0.015971258 -0.091536224 -0.10873178 0.15395714 -0.0843637 -0.05297587 0.08496034
-0.00039321184 -0.119646594 0.012006834 -0.055938438 0.041055158 0.039232075 0.077509075 -0.10560499
-0.08503204 -0.13703865 0.071905896 -0.0897312 0.12498145 -0.01836294 -0.055850178 -0.12747274
0.073454574 -0.09608659 0.023035377 -0.14262035 0.014665902 0.085408255 -0.13074398 -0.1024452
-0.12067278 -0.10289813 -0.01682116 0.059347376 -0.104442686 -0.12620899 -0.075102895 -0.026920512
0.12866886 -0.05884102 -0.15011887 -0.0381895 -0.06792389 0.08963983 0.110392734 0.12790002
0.0596226 0.03472972 -0.11569354 -0.12646548 -0.019613072 0.11845349 0.04005924 -0.010955125
-0.086370304 -0.14375378 0.07491845 0.01191403 -0.028961971 0.13999625 0.0788036 0.13000996
0.04169262 -0.062810525 0.058003426 -0.1002775 -0.08188612 0.022620102 -0.10893488 0.1323797
-0.016592987 -0.14492616 -0.040951215 0.032544404 0.07022504 -0.03665767 -0.10339315 -0.10645971
-0.01046198 0.01684012 -0.12157761 -0.101590775 -0.07251998 0.089293994 -0.050108556 -0.15356322
-0.052379977 -0.069107145 0.020491073 0.14784868 0.108686216 0.093176834 -0.14453857 -0.01787044
0.06719785 -0.06851215 -0.029715948 0.10408315 0.10834359 -0.10525887 -0.027821083 0.07679691
0.14243393 0.031897113 0.05533967 0.018564988 -0.037473813 -0.07488902 0.009069204 -0.1241524
-0.14355467 -0.0019242316 0.122310914 -0.018982649 0.07509717 0.018853888 0.014301892 0.10819918
-0.06315255 -0.09826958 0.009496198 -0.024214994 -0.14663166 -0.107684255 0.08888005 0.072230846
-0.07990086 -0.035683267 0.10959527 -0.097047605 -0.13305539 0.10818367 0.115857415 -0.0050500156
0.05448135 -0.03819144 -0.14998962 0.057667945 -0.123399585 -0.12382555 0.009352073 -0.081344664
-0.12597312 -0.14469004 0.036609486 0.094229735 0.115730055 -0.024878936 0.0047991127 0.032774393
00000000: 13af 0e3e 4ddd 943d a348 a2bd 6db2 84bd
00000010: f058 8ebc e8ab 4d3d e9f1 b93c 9a70 be3d
00000020: 73a5 2b3d 180e 16be 5af1 74bd 4c0c ff3c
00000030: 5db0 403d 49f0 edbd 201c a5bb 4ef1 883d
00000040: e8f8 1fbe cd7e 063e ac16 063e 40a9 a33d
00000050: 2f02 f8bc dff2 e73d 65f9 20bc 014d fbbd
00000060: 4cc2 053d e895 de3c 61a8 fa3d 4068 3c3b
00000070: edc2 2cbd aa72 d9bd 9914 f4bd 88b0 9a3d
00000080: 5263 19be 415d dabd 8ee9 d4bd d49d d1bd
00000090: 8175 edbd 00e6 2cbb 048d eabd e972 0abc
000000a0: 4bab 133e f369 ac3d b8c8 143d e03f dbbc
000000b0: d4ed bd3d d88e ed3c 3eb8 d93d 90b9 2b3d
000000c0: f8aa 07bd 619d 1b3e 967c d73d 5233 fa3d
000000d0: 428a 5bbd 4017 54bc 7035 773d 56d6 e8bd
000000e0: 9680 dc3d da2a b6bd bb10 86bd 321e 983d
000000f0: c750 04be 9004 5d3c c8ad 193d 23d2 0c3e
00000100: 4674 90bd e034 c63c c0d0 0b3d c05b d9bd
00000110: 331f 97bd bade d4bd 34b9 0cbe 709b 7cbd
00000120: 6462 f2bc c0df 15be b2bc f23d a555 063e
00000130: b7a8 94bd baa0 da3d a455 fbbc 175d 87bd
00000140: adbf 10be 4ef1 e63d 08b5 2b3d ca21 d13d
00000150: b8fc d33c 2b2a 00be d0f2 213c aaf0 e33d
00000160: 362d 10bd bace f53d a510 00be 54e6 a73d
00000170: 28b6 1abe 0004 733c 0cf2 503d f834 e3bd
00000180: b647 f33d 69be 8ebd 40b9 b9bc 3873 dcbd
00000190: 7449 bf3d 9889 d1bc e0fc a93c 6814 fe3c
000001a0: 656d 153e 28d6 82bc 5877 bbbd c4ae debd
000001b0: f1a6 1d3e e0c6 acbd 3afd 58bd b0ff ad3d
000001c0: 0028 ceb9 4609 f5bd 50b8 443c b41f 65bd
000001d0: 7429 283d d0b1 203d 14bd 9e3d 6e47 d8bd
000001e0: 4725 aebd dc53 0cbe 6643 933d fec4 b7bd
000001f0: 46f6 ff3d e06d 96bc 28c3 64bd 3788 02be
00000200: 5a6f 963d 0cc9 c4bd b0b4 bc3c 120b 12be
00000210: 4049 703c 86ea ae3d c0e1 05be cace d1bd
00000220: 4a23 f7bd 41bc d2bd 88cc 89bc 3c16 733d
00000230: 0ce6 d5bd ee3c 01be 8ccf 99bd 6888 dcbc
00000240: c5c1 033e 4803 71bd c3b8 19be 986c 1cbd
00000250: ae1b 8bbd 1695 b73d 9615 e23d 39f8 023e
00000260: d436 743d c040 0e3d bcf0 ecbd 2b80 01be
00000270: 98ab a0bc be97 f23d 2815 243d 207d 33bc
00000280: eae2 b0bd 3134 13be d86e 993d 1033 433c
00000290: a841 edbc 2d5b 0f3e c863 a13d 5521 053e
000002a0: e1c5 2a3d cea2 80bd 0095 6d3d 4a5e cdbd
000002b0: e9b3 a7bd cb4d b93c 4019 dfbd 8b8e 073e
000002c0: 04ee 87bc 8667 14be 76bc 27bd 484d 053d
000002d0: 25d2 8f3d 5a26 16bd cabf d3bd 8c07 dabd
000002e0: b968 2bbc 4bf4 893c affd f8bd d30e d0bd
000002f0: 5b85 94bd c5df b63d a13e 4dbd ad3f 1dbe
00000300: 638c 56bd 0c88 8dbd e5dc a73c a565 173e
00000310: e196 de3d 7fd3 be3d eb01 14be 0765 92bc
00000320: 079f 893d 1950 8cbd dc6e f3bc 8c29 d53d
00000330: 3ee3 dd3d f691 d7bd 0ae9 e3bc b347 9d3d
00000340: 33da 113e 8ca6 023d daab 623d 9a15 983c
00000350: 247e 19bd 6a5f 99bd 0097 143c 9d43 febd
00000360: ffff 12be 8036 fcba 257e fa3d 8081 9bbc
00000370: 8ccc 993d 7873 9a3c 7c52 6a3c 8897 dd3d
00000380: 2056 81bd 9041 c9bd f195 1b3c 865e c6bc
00000390: 9c26 16be 9089 dcbd be06 b63d c4ed 933d
000003a0: 10a3 a3bd 9e28 12bd 7c73 e03d e5c0 c6bd
000003b0: ac3f 08be 668f dd3d a746 ed3d 9a7a a5bb
000003c0: d627 5f3d a16e 1cbd e196 19be 3935 6c3d
000003d0: ecb8 fcbd 4098 fdbd 7039 193c 0898 a6bd
000003e0: 19ff 00be a029 14be d4f3 153d 85fb c03d
000003f0: e103 ed3d e9ce cbbc e041 9d3b 713e 063d

fc4.bias f4 [42]
0.025984064 -0.14419049 -0.073626615 -0.12078629 -0.0278428 -0.03598657 0.05490391 -0.07585846
0.16814043 -0.06523334 0.02109489 0.018004492 0.114094436 0.08765254 0.09184882 -0.119985074
-0.13905524 -0.06957604 -0.12318422 0.13236052 -0.027127221 -0.14834961 -0.066071525 -0.02941902
-0.08107943 -0.11960457 0.12490222 0.010280663 -0.13358769 0.15086034 0.031135025 -0.14441215
-0.12460156 0.020239664 -0.09012063 0.12093036 0.020040952 -0.013648195 -0.008420611 -0.105156645
0.12120344 -0.11803826
00000000: 88dc d43c aca6 13be 8dc9 96bd cd5e f7bd
00000010: 9516 e4bc a766 13bd ece2 603d ae5b 9bbd
00000020: 012d 2c3e 0f99 85bd 31cf ac3c 287e 933c
00000030: 58aa e93d 2d83 b33d 3c1b bc3d bcba f5bd
00000040: 7f64 0ebe e27d 8ebd 0248 fcbd 8489 073e
00000050: e839 debc f6e8 17be 8250 87bd 2800 f1bc
00000060: f90c a6bd 3ef3 f4bd bccc ff3d 3a70 283c
00000070: 36cb 08be 227b 1a3e e10e ff3c c7e0 13be
00000080: 1a2f ffbd a7cd a53c 2a91 b8bd 56aa f73d
00000090: ec2c a43c ae9c 5fbc 9af6 09bc 5e5c d7bd
000000a0: 8239 f83d 0bbe f1bd

fc5.weight f4 [42, 42]
0.14288662 -0.10796056 0.09485674 -0.15304676 0.028431594 -0.13808386 -0.096557945 0.13163342
-0.066003665 -0.11616653 -0.093213275 -0.040062495 -0.06072981 -0.08754935 0.13843228 0.008021429
0.1270447 0.13455059 -0.12759359 -0.072101735 0.106943 -0.07907965 0.0029516965 0.012109652
-0.065722615 -0.043361932 0.029950306 0.10825314 0.048734322 -0.004016936 -0.032381326 0.13331236
-0.13732155 -0.10903989 0.06957884 -0.018733919 0.12911902 -0.04066 -0.096483454 0.063682824
-0.08988636 -0.11382422 0.052011102 -0.1416417 0.047482952 -0.0836673 -0.06124323 -0.045959882
0.15069138 0.075905874 -0.11859861 0.15231718 -0.12663464 -0.1232633 0.05006057 -0.10846149
-0.14877146 -0.07225044 -0.09810817 0.100255415 0.063168585 0.06359707 -0.113801345 -0.14178805
0.122889236 0.044551864 -0.11683083 0.027148187 0.12591486 -0.1110788 0.092812076 0.0447509
-0.14739202 0.07662921 0.082545295 -0.095639184 0.03445746 0.012657121 -0.14812167 -0.1533778
-0.13460033 -0.032498315 -0.06624299 -0.07305576 0.04142134 -0.11461501 -0.009201422 0.064403474
0.024114445 0.034483433 0.12273134 0.007610023 0.010074154 0.1461408 0.14649443 0.0071329027
-0.028192788 0.042867035 -0.14558388 -0.09443562 0.102525875 -0.10784537 0.104775354 -0.006871149
0.1272914 -0.14396714 0.0027831644 0.045931384 0.086735085 -0.065353535 0.042882353 -0.04744295
0.13852294 -0.05685871 -0.04445947 0.12999626 -0.08958833 -0.056977406 0.09297876 -0.011941791
-0.0037178397 -0.0054341704 0.059594005 -0.14983147 -0.071506016 -0.11393677 -0.07082583 -0.10846118
-0.14792727 0.07986882 0.044125617 0.11335839 0.07179591 -0.000545159 -0.0019689202 0.032969594
-0.07526287 0.025857255 -0.122403875 -0.009323567 0.048976466 0.10874204 0.021325484 0.0006156862
0.0030456483 0.017543495 0.010408968 -0.028502554 0.14188208 0.0045380443 -0.11300214 -0.05191812
0.110689744 0.12995644 0.122734115 -0.10218404 0.14411281 0.031771734 0.15045957 -0.112518616
0.064532995 -0.096365005 0.010691151 0.021163538 0.062201947 0.005232528 -0.12706277 -0.07347383
-0.08682708 -0.09065888 0.068552464 0.02959165 0.075465724 -0.008626699 0.043300092 -0.13045482
0.012267247 0.09909068 0.15217085 -0.11192902 -0.11176814 0.14278434 -0.12745446 0.12575705
-0.14135444 -0.13250533 0.023761973 0.12880434 0.095385686 -0.014153957 -0.00388664 0.029292807
0.14298032 -0.07207878 0.14172433 -0.032546706 0.003136173 0.12650366 -0.04167544 -0.08287199
-0.0717644 -0.12938675 0.10206704 0.14106007 -0.014530852 -0.05343511 -0.022783414 -0.13220476
-0.06222575 -0.13501352 0.02497971 -0.0075068623 0.043040708 0.08966671 -0.014056742 0.14043058
-0.12863748 0.13040136 -0.06991527 -0.042470448 -0.008431554 -0.07380006 0.043446913 0.043256253
0.015460297 -0.15263705 -0.12989184 -0.11017379 0.05225739 -0.043311216 -0.112019815 -0.013414413
0.13860042 0.143436 0.11025275 0.05511406 -0.12954251 0.12523513 0.13399799 -0.08373781
-0.08587616 -0.0985249 -0.11774457 0.021091238 0.0646797 0.03186071 0.089930356 0.118508264
-0.15106323 0.08457823 -0.12139009 -0.020746216 0.0785642 0.07992478 0.1348462 0.08237648
00000000: df50 123e 6d1a ddbd 4044 c23d 4ab8 1cbe
00000010: 60e9 e83c db65 0dbe 2cc0 c5bd e9ca 063e
00000020: ee2c 87bd b8e8 edbd 9ae6 bebd 9218 24bd
00000030: d2bf 78bd 134d b3bd 31c1 0d3e 506c 033c
00000040: 0118 023e a1c7 093e e5a7 02be 13aa 93bd
00000050: ee04 db3d 83f4 a1bd 4071 413b 9067 463c
00000060: 9499 86bd 489c 31bd 585a f53c d2b3 dd3d
00000070: a49d 473d 80a0 83bb 48a2 04bd 0983 083e
00000080: 059e 0cbe 4e50 dfbd 5a7f 8e3d e077 99bc
00000090: c737 043e 1a8b 26bd 1e99 c5bd 246c 823d
000000a0: 5716 b8bd ac1c e9bd 9809 553d 860a 11be
000000b0: 7c7d 423d c359 abbd 2eda 7abd 6e40 3cbd
000000c0: d74e 1a3e 8a74 9b3d d4e3 f2bd 09f9 1b3e
000000d0: 83ac 01be 7871 fcbd 500c 4d3d 0f21 debd
000000e0: 8c57 18be 0af8 93bd f0ec c8bd b652 cd3d
000000f0: 885e 813d 2e3f 823d ae10 e9bd e330 11be
00000100: 5aad fb3d 047c 363d 0145 efbd e065 de3c
00000110: d3ef 003e 487d e3bd 4214 be3d b84c 373d
00000120: efed 16be c6ef 9c3d 820d a93d 7ade c3bd
00000130: 4423 0d3d d05f 4f3c 35ad 17be 120f 1dbe
00000140: abd4 09be f41c 05bd 68aa 87bd 429e 95bd
00000150: 6ca9 293d 46bb eabd 90c1 16bc f8e5 833d
00000160: a88b c53c 803e 0d3d 925a fb3d 805d f93b
00000170: 100e 253c efa5 153e a302 163e 20bb e93b
00000180: 90f4 e6bc 5895 2f3d f113 15be 7667 c1bd
00000190: 16f9 d13d 09de dcbd 7694 d63d 6027 e1bb
000001a0: ad58 023e 1f6c 13be c065 363b 8c22 3c3d
000001b0: 2aa2 b13d 13d8 85bd 68a5 2f3d 8a53 42bd
000001c0: f5d8 0d3e aee4 68bd 221b 36bd bd1d 053e
000001d0: 167a b7bd 2461 69bd a66b be3d 80a7 43bc
000001e0: 00a7 73bb 2011 b2bb d818 743d 6c6d 19be
000001f0: bf71 92bd ae57 e9bd 220d 91bd e520 debd
00000200: 3f7a 17be 4492 a33d 10bd 343d 7228 e83d
00000210: bc09 933d 00e9 0eba 0009 01bb 200b 073d
00000220: 6b23 9abd 98d2 d33c e2ae fabd e0c1 18bc
00000230: 8c9b 483d 26b4 de3d c8b2 ae3c 0066 213a
00000240: 8099 473b 60b7 8f3c 608a 2a3c 307e e9bc
00000250: 8949 113e e0b3 943b aa6d e7bd 18a8 54bd
00000260: 4eb1 e23d 4d13 053e 065c fb3d de45 d1bd
00000270: 4f92 133e 1423 023d 1312 1a3e 2970 e6bd
00000280: e029 843d 045b c5bd f029 2f3c 285f ad3c
00000290: 78c7 7e3d a075 ab3b be1c 02be 7379 96bd
000002a0: 65d2 b1bd 5dab b9bd 3c65 8c3d 306a f23c
000002b0: c68d 9a3d 0057 0dbc 705b 313d f395 05be
000002c0: 90fc 483c 0ef0 ca3d add2 1b3e 0b3b e5bd
000002d0: b2e6 e4bd 0f36 123e 6c83 02be 75c6 003e
000002e0: 38bf 10be 7aaf 07be 78a8 c23c 49e5 033e
000002f0: 9259 c33d 00e6 67bc 00b7 7ebb 78f7 ef3c
00000300: 6f69 123e 0a9e 93bd 2f20 113e b24f 05bd
00000310: 4088 4d3b 2d8a 013e deb3 2abd cab8 a9bd
00000320: 37f9 92bd f67d 04be 8608 d13d 0d72 103e
00000330: d012 6ebc c6de 5abd 48a4 babc af60 07be
00000340: 6ee0 7ebd fc40 0abe 40a2 cc3c 20fc f5bb
00000350: 744b 303d 2ea3 b73d 404e 66bc 09cd 0f3e
00000360: 8bb9 03be ef87 053e bd2f 8fbd 7ef5 2dbd
00000370: 8024 0abc 7c24 97bd 64f5 313d 782d 313d
00000380: 304d 7d3c e34c 1cbe 5e02 05be cca2 e1bd
00000390: d80b 563d 1a67 31bd a56a e5bd 20c8 5bbc
000003a0: 45ed 0d3e e3e0 123e 32cc e13d 48bf 613d
000003b0: cba6 04be a33d 003e c536 093e bb7e abbd
000003c0: d7df afbd 6cc7 c9bd 1124 f1bd 88c7 ac3c
000003d0: ca76 843d 6080 023d 682d b83d 76b4 f23d
000003e0: 52b0 1abe 5a37 ad3d 5e9b f8bd f8f3 a9bc
000003f0: 44e6 a03d 9aaf a33d 1f15 0a3e 00b5 a83d

fc5.bias f4 [42]
-0.12119759 0.1361535 0.054458424 0.022756204 0.14723884 0.14868306 -0.009813651 0.12692706
0.008143708 0.06723136 -0.042159416 0.12997346 -0.14394124 0.15040933 0.028968766 0.060263857
-0.011502698 -0.12791662 -0.036559902 -0.04874544 -0.030452691 0.04879816 -0.08716303 0.12968059
-0.09179511 0.06025733 -0.038078845 0.018677771 -0.05817326 0.10727899 0.12620185 0.15232877
0.12268804 -0.08941114 0.12889545 0.028219536 -0.041561857 0.0003501922 0.005871892 -0.0071579367
-0.083946675 0.024651289
00000000: 7136 f8bd d36b 0b3e cc0f 5f3d 386b ba3c
00000010: c7c5 163e 5f40 183e 70c9 20bc 2bf9 013e
00000020: 306d 053c 98b0 893d 5aaf 2cbd c317 053e
00000030: 5565 13be e704 1a3e e84f ed3c 3cd7 763d
00000040: d075 3cbc 93fc 02be d6bf 15bd 4ca9 47bd
00000050: ec77 f9bc 94e0 473d 8882 b2bd fdca 043e
00000060: 13ff bbbd 64d0 763d 90f8 1bbd 2002 993c
00000070: 1647 6ebd 16b5 db3d 0f3b 013e 13fc 1b3e
00000080: de43 fb3d 301d b7bd 2bfd 033e a82c e73c
00000090: c43c 2abd 009a b739 0069 c03b 208d eabb
000000a0: 3cec abbd 80f1 c93c

fc6.weight f4 [42, 42]
-0.11725637 -0.037220284 0.0019683093 0.032456905 0.06454353 0.10051076 0.09234087 0.06500621
-0.111237764 -0.112805165 -0.08685154 -0.021303728 -0.08517412 -0.006590143 0.107243136 0.13526316
-0.07655833 0.08642466 -0.011698276 -0.021615341 0.067991436 -0.12434706 -0.1534605 -0.031362258
-0.09328636 -0.14254072 0.034446016 0.116414204 0.13898493 0.029185802 -0.098408595 0.007125914
-0.057491012 0.116815224 0.10979216 0.12480588 -0.13810514 -0.117029436 -0.04673166 0.077102214
0.06040165 -0.12555404 0.03107807 0.13882358 -0.10172945 -0.13726181 -0.08897624 -0.11792975
0.050020397 0.08795601 0.094930395 0.05288607 -0.010796189 -0.028023496 0.10468002 0.036260113
0.07574546 -0.11667179 0.014534131 -0.06891425 -0.017932266 -0.13723885 -0.11423063 0.14905728
-0.04355728 -0.052113228 0.01033169 -0.0529045 0.06549139 -0.09613819 -0.019080088 -0.09140457
-0.06399319 -0.061334558 0.07137008 0.009934828 -0.043713078 -0.0070827454 0.023853064 -0.00436832
-0.0036741495 -0.14558682 0.14996718 0.07082346 -0.08091096 -0.048861176 0.015098631 0.13230382
0.0013384819 -0.0757741 -0.13834688 0.08043189 -0.13673735 0.04316835 -0.03225194 -0.14571904
0.13803495 0.022482157 0.11660896 -0.062757075 0.07093994 0.04782605 -0.08442525 -0.018102959
0.07209903 0.14273931 0.047716394 0.14229523 0.03026636 -0.11571757 -0.08549297 -0.0794682
-0.095430404 -0.13020049 0.107788816 0.0043584257 0.11970146 0.06934063 -0.0122796 0.06600168
0.107482806 -0.13257828 -0.064481124 0.06617114 0.1333649 -0.05608969 -0.04999852 0.043861106
-0.087549314 0.13949938 0.08685814 0.09753288 0.13900109 0.053402916 -0.0277078 -0.14497761
-0.05053729 -0.11076558 0.1418551 -0.083641954 -0.13200301 -0.12676246 0.15084301 -0.0026548058
0.05108495 0.01793386 0.09159842 -0.1173575 -0.0925513 0.06972158 -0.081165574 0.11767717
0.070757076 0.025098503 -0.0337456 0.079275995 -0.120486386 0.00063973665 0.01563494 0.13301934
0.0331731 -0.0032268912 -0.02327384 -0.0016436875 -0.010286763 0.032418996 -0.0096986145 -0.06708029
0.0930794 0.02713412 0.0091576725 0.09790014 -0.05963356 -0.0046237856 0.04036425 0.14958502
0.054012507 0.13685773 0.11170103 -0.029481322 -0.011179328 0.12976764 0.12133007 0.111064
0.018728688 -0.11488502 -0.13486843 -0.08742783 0.10839616 0.046899453 0.09880571 -0.14830957
-0.0634879 -0.11877045 -0.14610203 -0.13283145 -0.03585452 -0.018001065 0.07162218 -0.044483766
-0.0037220716 -0.041349478 0.14997675 -0.13449445 -0.009497121 0.10225709 0.041453183 -0.068927266
-0.06102173 -0.10901745 0.12921403 -0.085778944 0.13092251 0.12095387 -0.12614113 -0.05706553
-0.077076025 0.107096836 -0.07577872 0.008690745 -0.10084742 0.13670002 -0.15279487 0.024703503
0.14120816 -0.15328628 -0.13166367 -0.12678602 0.091541946 -0.006855026 -0.08898494 0.14974625
-0.028419167 0.03778681 0.11537041 -0.11217044 0.07746187 0.011548609 -0.08385881 -0.06624066
0.11066897 0.025306553 0.06306107 -0.15256211 0.113998875 -0.10203129 0.06433636 -0.12288154
0.0018703938 -0.12357337 -0.13262588 -0.14592166 -0.017506912 0.13877173 0.14107655 -0.06824018
00000000: 1c24 f0bd 4c74 18bd c0fe 003b 88f1 043d
00000010: 662f 843d 96d8 cd3d 361d bd3d fa21 853d
00000020: a0d0 e3bd 6506 e7bd 38df b1bd 2885 aebc
00000030: c56f aebd 20f2 d7bb 4aa2 db3d 6d82 0a3e
00000040: 9dca 9cbd 6aff b03d 20aa 3fbc a812 b1bc
00000050: 183f 8b3d aca9 febd c024 1dbe b675 00bd
00000060: eb0c bfbd 32f6 11be 4417 0d3d 926a ee3d
00000070: 1152 0e3e 1017 ef3c 728a c9bd 8080 e93b
00000080: b27b 6bbd d23c ef3d b6da e03d 3a9a ff3d
00000090: 6f6b 0dbe 21ad efbd b269 3fbd c4e7 9d3d
000000a0: b867 773d 3d91 00be 7097 fe3c c527 0e3e
000000b0: 8857 d0bd 5c8e 0cbe 2d39 b6bd 2785 f1bd
000000c0: 30e2 4c3d 4822 b43d de6a c23d 109f 583d
000000d0: 80e2 30bc 8891 e5bc 7a62 d63d 7c85 143d
000000e0: 7020 9b3d 9ff1 eebd 9020 6e3c ea22 8dbd
000000f0: b0e6 92bc 5788 0cbe c0f1 e9bd 79a2 183e
00000100: 1e69 32bd ae74 55bd 4046 293c 64b2 58bd
00000110: 5a20 863d 19e4 c4bd d84d 9cbc 5232 bbbd
00000120: dd0e 83bd f239 7bbd 7a2a 923d b0c5 223c
00000130: 7c0c 33bd 6016 e8bb 8067 c33c 2024 8fbb
00000140: 00ca 70bb b614 15be ff90 193e e40b 913d
00000150: a5b4 a5bd a822 48bd 4060 773c a77a 073e
00000160: 0070 af3a 742f 9bbd ceaa 0dbe 7ab9 a43d
00000170: e004 0cbe 4cd1 303d 9c1a 04bd 5f37 15be
00000180: 0959 0d3e 802c b83c aed0 ee3d c886 80bd
00000190: f648 913d 40e5 433d 25e7 acbd a84c 94bc
000001a0: a8a8 933d 412a 123e 4472 433d d7b5 113e
000001b0: 28f1 f73c 55fd ecbd f016 afbd 39c0 a2bd
000001c0: 0471 c3bd 4753 05be 62c0 dc3d 20d1 8e3b
000001d0: 0a26 f53d 7602 8e3d 6030 49bc e42b 873d
000001e0: f21f dc3d 9ac2 07be ae0e 84bd bc84 873d
000001f0: cf90 083e 4ebe 65bd 40cb 4cbd b4a7 333d
00000200: 0e4d b3bd edd8 0e3e aee2 b13d 52bf c73d
00000210: 4d56 0e3e 04bd 5a3d 78fb e2bc 0375 14be
00000220: 3000 4fbd 10d9 e2bd 7742 113e 794c abbd
00000230: cc2b 07be 05ce 01be 9776 1a3e 40fc 2dbb
00000240: 743e 513d 08ea 923c f497 bb3d 2159 f0bd
00000250: 898b bdbd 30ca 8e3d 233a a6bd ba00 f13d
00000260: 16e9 903d 609b cd3c d438 0abd 745b a23d
00000270: 91c1 f6bd 00b4 273a d814 803c 3936 083e
00000280: 84e0 073d 407a 53bb c8a8 bebc 0071 d7ba
00000290: d089 28bc c8c9 043d f0e6 1ebc 6461 89bd
000002a0: 6aa0 be3d 6048 de3c 100a 163c de7f c83d
000002b0: 5242 74bd 2083 97bb fc54 253d d12c 193e
000002c0: 383c 5d3d 6f24 0c3e 82c3 e43d d082 f1bc
000002d0: 8029 37bc cfe1 043e e67b f83d 8675 e33d
000002e0: e86c 993c d648 ebbd f31a 0abe 5d0d b3bd
000002f0: cefe dd3d a419 403d a65a ca3d 77de 17be
00000300: f205 82bd ec3d f3bd c59b 15be f804 08be
00000310: 30dc 12bd f876 93bc a6ae 923d 9c34 36bd
00000320: 00ee 73bb 125e 29bd 8193 193e eab8 09be
00000330: d099 1bbc 2a6c d13d d0ca 293d bd29 8dbd
00000340: ecf1 79bd 8a44 dfbd af50 043e dfac afbd
00000350: 8d10 063e aab6 f73d 242b 01be 8cbd 69bd
00000360: 09da 9dbd 9655 db3d e031 9bbd a063 0e3c
00000370: 1889 cebd 17fb 0b3e 4276 1cbe 005f ca3c
00000380: df98 103e 14f7 1cbe d7d2 06be 32d4 01be
00000390: 587a bb3d 20a0 e0bb bc3d b6bd 1557 193e
000003a0: 50cf e8bc 58c6 1a3d 5247 ec3d 9eb9 e5bd
000003b0: 54a4 9e3d 6036 3d3c 2bbe abbd 2fa9 87bd
000003c0: 6aa6 e23d b04f cf3c 2a26 813d 3e39 1cbe
000003d0: 3e78 e93d c8f5 d0bd c8c2 833d 51a9 fbbd
000003e0: 0028 f53a 0914 fdbd 14cf 07be 7d6c 15be
000003f0: a86a 8fbc 2d1a 0e3e 5f76 103e 82c1 8bbd

fc6.bias f4 [42]
-0.006158367 0.107635215 0.12391038 -0.031716682 -0.10254522 -0.08725329 0.1456251 0.06502977
-0.061874494 0.00085002184 0.10272659 -0.07372664 -0.04441777 -0.051743396 0.03946607 -0.08351785
-0.040049583 -0.15350667 0.07618347 0.041526675 0.1128488 -0.031884104 -0.036116935 0.11348231
-0.13300455 -0.12809311 0.023881659 0.075998515 -0.0071276277 -0.064608194 0.061653286 -0.02722834
-0.14925914 -0.09834026 -0.02483797 0.02286753 0.07241225 -0.016721532 -0.12624839 0.09667881
0.026738241 0.008871138
00000000: 20cc c9bb da6f dc3d bac4 fd3d 5ae9 01bd
00000010: 3a03 d2bd dab1 b2bd bf1e 153e 542e 853d
00000020: 1c70 7dbd 00d4 5e3a 5262 d23d fefd 96bd
00000030: 68ef 35bd e2f0 53bd 2ca7 213d 680b abbd
00000040: 080b 24bd da30 1dbe 1406 9c3d e017 2a3d
00000050: 461d e73d e898 02bd 5aef 13bd 6a69 e83d
00000060: 5832 08be d72a 03be 78a3 c33c 1ca5 9b3d
00000070: e08e e9bb 4d51 84bd 2888 7c3d f80d dfbc
00000080: 63d7 18be 9e66 c9bd 0079 cbbc b054 bb3c
00000090: e04c 943d 98fb 88bc 4247 01be 8aff c53d
000000a0: 280a db3c 4058 113c

fc7.weight f4 [42, 42]
0.100155845 -0.055846058 -0.05940911 0.09665878 0.044992194 0.12024085 -0.10299413 0.047455877
-0.13408962 0.14431472 0.048191547 -0.1521366 0.010324255 0.016947791 -0.11857903 0.15011884
-0.09259066 0.11490388 0.14577703 0.063446105 0.09507696 0.02149409 -0.06872289 -0.03128732
0.030546024 0.09303215 0.042223424 -0.1094208 -0.014114261 0.08300361 -0.12841392 -0.033604972
0.085955665 -0.0803611 0.023389831 0.07515192 0.11308487 -0.10378145 0.031561777 -0.11299604
-0.079336084 -0.123033956 0.0011223853 -0.006664291 0.007521689 0.039261192 0.0011592209 0.04510051
0.06033045 -0.13031437 0.049621373 0.052481174 0.029726937 0.0032429844 0.022297516 0.10252799
-0.04715798 -0.07442199 0.05365488 -0.031829253 0.09186293 -0.020863086 -0.0780908 0.13318898
-0.056817263 -0.06277938 0.10647003 0.12166931 0.024513736 0.042649165 0.091149464 -0.052981816
0.035603583 -0.14125842 -0.060991727 -0.07160962 -0.13179955 0.12002076 -0.14414273 0.118336216
0.03350967 0.117094204 -0.14939322 -0.1309954 -0.09194316 0.07906352 -0.06635176 0.12427227
-0.09115147 -0.017359614 0.05850455 -0.06156852 -0.12747005 -0.10851933 0.06802039 0.024898008
0.14070536 -0.12774304 0.101476744 0.013382107 -0.13340081 -0.09861913 0.07003689 -0.009556219
-0.022409707 -0.049593233 -0.058552794 0.09427509 0.13864933 0.10381298 0.07849559 -0.02633956
0.119567856 0.135431 -0.09146026 0.082650945 0.09156659 -0.06724168 -0.027813941 0.08274761
-0.034286983 -0.007001534 -0.13181375 -0.0020421147 -0.14134835 0.063745484 0.12870719 0.060549214
-0.073976845 0.111129925 -0.113568954 0.075142145 -0.07799631 -0.08711011 -0.037782602 0.009146601
0.026980862 -0.123384476 -0.1454017 -0.04918254 -0.045417503 -0.015704542 -0.02398172 0.11341037
-0.1342424 0.053148538 0.035737544 0.09325339 -0.039784536 0.10350074 -0.11246906 -0.08640984
-0.030942477 0.04349391 -0.10042993 -0.14893416 0.064243406 0.039880678 -0.084017664 -0.018136278
-0.10706091 -0.05376137 0.017895266 0.04456207 0.115188405 0.05218409 -0.015100062 0.10754885
-0.019296512 0.119662866 0.045173243 -0.09116074 0.09486939 0.060512334 0.034037977 0.05635488
-0.008774683 -0.10711447 -0.1502304 -0.08845168 -0.01930131 0.1298243 -0.032818317 0.017767608
0.046520293 0.088503405 -0.091781534 -0.06300642 0.04252495 0.049729258 0.10998626 -0.14536467
0.012862906 -0.13768716 -0.09035898 -0.0050586164 -0.052449293 -0.01770918 -0.04322066 0.1270199
0.03144346 -0.013352349 0.066277385 -0.10741025 0.015326083 -0.14555532 0.062612504 0.002686888
-0.10501278 0.056904167 -0.0032913685 0.051438913 -0.061940365 0.061176926 -0.06331728 -0.06698488
0.12459929 0.06625283 0.10412158 -0.13029718 0.091493875 -0.142477 0.13697927 0.13402762
0.0021774769 0.114657745 -0.017060265 -0.066872746 -0.11477132 0.04885605 0.00548172 0.057667106
0.124912396 -0.15185137 0.013321623 -0.07438757 -0.14777274 0.039800853 -0.059270687 -0.043196514
-0.029083401 0.13585527 -0.01926732 -0.10893245 -0.04636638 0.06134008 0.09799923 -0.049482793
0.042909667 0.052015588 -0.12390598 0.12412615 -0.073732734 -0.01231277 0.0030102283 -0.059953213
00000000: 821e cd3d d6be 64bd f856 73bd 0af5 c53d
00000010: bc49 383d d640 f63d 96ee d2bd 1861 423d
00000020: ca4e 09be 3dc7 133e 8064 453d b2c9 1bbe
00000030: 1027 293c 18d6 8a3c 90d9 f2bd c1b8 193e
00000040: 2ca0 bdbd ba52 eb3d 9346 153e 08f0 813d
00000050: b6b7 c23d 6014 b03c 96be 8cbd 2227 00bd
00000060: a83b fa3c a487 be3d 78f2 2c3d 0318 e0bd
00000070: 803f 67bc ccfd a93d f07e 03be 5ea5 09bd
00000080: 8609 b03d 5c94 a4bd 089c bf3c 40e9 993d
00000090: 0a99 e73d 5e8b d4bd ec46 013d 786a e7bd
000000a0: f57a a2bd 3af9 fbbd 001d 933a 2060 dabb
000000b0: 8078 f63b 58d0 203d 00f1 973a 50bb 383d
000000c0: 101d 773d 2171 05be c83f 4b3d 80f6 563d
000000d0: e885 f33c 4088 543b 48a9 b63c 32fa d13d
000000e0: ba28 41bd 8e6a 98bd 38c5 5b3d 645f 02bd
000000f0: a222 bc3d 10e9 aabc 12ee 9fbd b162 083e
00000100: 38b9 68bd 7a92 80bd f60c da3d c22d f93d
00000110: 08d1 c83c e4b0 2e3d 92ac ba3d 7603 59bd
00000120: 10d5 113d 0ca6 10be 76d2 79bd 10a8 92bd
00000130: 76f6 06be 72cd f53d 279a 13be 425a f23d
00000140: 7041 093d 16cf ef3d 89fa 18be a823 06be
00000150: b24c bcbd 0eec a13d 6ee3 87bd 7682 fe3d
00000160: 9fad babd c035 8ebc 78a2 6f3d 462f 7cbd
00000170: 8287 02be 623f debd 464e 8b3d e8f6 cb3c
00000180: 1115 103e 12cf 02be 0ad3 cf3d a040 5b3c
00000190: 399a 08be d4f8 c9bd 806f 8f3d b091 1cbc
000001a0: 9094 b7bc 4622 4bbd 0ed5 6fbd 4c13 c13d
000001b0: 17fa 0d3e e69b d43d 4cc2 a03d 10c6 d7bc
000001c0: fedf f43d 6dae 0a3e 844f bbbd e644 a93d
000001d0: 4487 bb3d 02b6 89bd 10da e3bc 9477 a93d
000001e0: 8270 0cbd 206d e5bb 2ffa 06be 00d5 05bb
000001f0: 9fbd 10be fe8c 823d d1cb 033e 7402 783d
00000200: 2c81 97bd 1698 e33d d796 e8bd 20e4 993d
00000210: 88bc 9fbd c966 b2bd eec1 1abd a0db 153c
00000220: f806 dd3c 00b1 fcbd 2fe4 14be a273 49bd
00000230: b407 3abd d0a6 80bc 5075 c4bc b243 e83d
00000240: d776 09be 48b2 593d 8861 123d a2fb be3d
00000250: 1cf5 22bd 32f8 d33d 2e56 e6bd a4f7 b0bd
00000260: 147b fdbc ac26 323d 35ae cdbd 3282 18be
00000270: 0c92 833d ec59 233d 7411 acbd 8892 94bc
00000280: c042 dbbd e234 5cbd 1899 923c b886 363d
00000290: e6e7 eb3d fcbe 553d 4066 77bc 9242 dc3d
000002a0: b813 9ebc ce11 f53d 9407 393d 7bb2 babd
000002b0: e24a c23d c8db 773d 686b 0b3d 60d4 663d
000002c0: b0c3 0fbc d55e dbbd ffd5 19be 2826 b5bd
000002d0: c81d 9ebc a9f0 043e 806c 06bd 608d 913c
000002e0: 108c 3e3d 4641 b53d f5f7 bbbd 8309 81bd
000002f0: a42e 2e3d e8b0 4b3d 7a40 e13d 7ada 14be
00000300: f0be 523c ddfd 0cbe 210e b9bd c0c2 a5bb
00000310: 12d5 56bd d812 91bc 2608 31bd 8111 023e
00000320: dcca 003d d0c3 5abc 70bc 873d e8f9 dbbd
00000330: 401a 7b3c 740c 15be fc3a 803d 8016 303b
00000340: f110 d7bd 5814 693d 00b4 57bb 9cb1 523d
00000350: 2eb5 7dbd a894 7a3d 7dac 81bd 5e2f 89bd
00000360: ea2d ff3d 90af 873d b23d d53d a06c 05be
00000370: 2461 bb3d 7ee5 11be 4b44 0c3e 893e 093e
00000380: 00b4 0e3b aed1 ea3d f8c1 8bbc 94f4 88bd
00000390: 3a0d ebbd 481d 483d 00a0 b33b 5834 6c3d
000003a0: 12d2 ff3d ed7e 1bbe f042 5a3c 8358 98bd
000003b0: bd51 17be 3806 233d d2c5 72bd d4ee 30bd
000003c0: 5040 eebc a51d 0b3e 80d6 9dbc fa17 dfbd
000003d0: acea 3dbd bc3f 7b3d d2b3 c83d 78ae 4abd
000003e0: 0cc2 2f3d 4c0e 553d 6bc2 fdbd da35 fe3d
000003f0: 3001 97bd 80bb 49bc 4047 453b 8091 75bd
