app/net/net.pth (torch_old, 68024 bytes, 19 tensors)

fc1.weight f4 [42, 42]
00000000: 9fbb c13b 6f0c 803c 36e4 283e 15cd 253e
00000010: 9a40 083e 5251 97bd b1da 0c3e 8f62 d1bd
00000020: 84b1 103e 2a0e ef3d d0c3 f5bd baf8 ac3d
00000030: fdfd aebc 3c1d a5bd 9f1c 873d 54e1 80bb
00000040: f6f0 103e c65a 0b3e 4da8 dfbd 4ecd 22bc
00000050: 958e eabd 07c6 123d 2255 f43d 9b99 473d
00000060: 9011 efbd 4745 11be ba21 0a3c f09b 813d
00000070: 2f3f 0abe 1301 b9bd 639c d5bd 4725 2d3d
00000080: 5032 ce3d e392 fc3d d3de 7f3d 1a21 90bd
00000090: a09d f13c fca3 423d d4a0 ea3c 2feb 57bd
000000a0: d903 a23d a691 1c3e 1e27 febc 529e 1f3e
000000b0: 77ee ccbd dde5 163d 7d98 33be 8a6e 13be
000000c0: 66bf 2cbb a699 233e 4e9e a3bc ade5 d63d
000000d0: ab2a 08be 98fb 173d 4e5b 0a3e 262b 82bd
000000e0: 0d93 0f3d af2a 653d 21f9 173e f416 ce3d
000000f0: 7a34 673d 6df0 1fbc dac9 e53d 9a03 8a3c
00000100: aaf0 6abd ed3a cfbd 5009 00be e3ee 8e3d
00000110: 5cea 0abe 7a1f 423e 7547 773d 0dbc 02bd
00000120: de20 f93d 7b79 983c 88f4 c4bd 70c5 0cbc
00000130: 53d0 8aba b1b5 53bd 188a 90bc aa12 b33d
00000140: 27bf 0fbe c39e afbb 766c e7bc 490d 0bbe
00000150: 51a7 33bc 73e5 7b3e ecb2 0ebe fc39 9cbc
00000160: 18c6 9cbd b64c a2bd cae4 29bc 941f 113d
00000170: c975 0f3e 44b0 bcbb 8e07 4fbd fdd7 14be
00000180: e234 2bbd f376 223e 332a ed3d 95bd ca3c
00000190: 0884 8bbb 243a 7cbd 492d 19be 65cc 18bc
000001a0: dce6 013e 7369 e5bc bfdc 1f3e 6e64 0e3d
000001b0: db99 073c 0ffd fe3d be1b 85bd e32f 3e3e
000001c0: bf18 0c3e aeac 9c3d 4635 2dbd 0ce6 02be
000001d0: 9ca6 e6bd 1d23 773b 64d7 813d 7a2e 993c
000001e0: c431 103e 3767 f53d 6960 d0bc 8651 8e3d
000001f0: add1 e73c 6565 fbbc d4ba edbd 8fe8 073d
00000200: e203 0fbe e5e2 19bd 6727 13bc 0e01 a53d
00000210: 9544 663c ef47 f4bd 1192 47bd d684 ed3d
00000220: e16f 70bc c028 e9bd 5be2 bdbc 8aa2 06be
00000230: 6b9e 5fba 6902 123e 09d8 0abe 8d0c d3bd
00000240: 45aa 39bd 39a2 853c 7933 0dbd 5473 06bd
00000250: e5f9 143e e4fc 133e 79d1 c93c 9617 073e
00000260: 5212 babd 8d62 0dbd 2129 99bd fc5b 083d
00000270: bc3e 1a3e 82eb 94bd d7f8 e33d ec6f 263e
00000280: bbe0 393d 8727 01be 6a4a 75bd 3900 f73d
00000290: 2f67 16be 6b27 163e a8b7 043d 2338 21bd
000002a0: e170 86bd f0e5 b4bc a37c b73d 4327 07be
000002b0: 7527 45be 2f65 723d 4251 953b a62b f8bc
000002c0: 605a c43d 74bc f9bd ad8a 08be 43d4 b7bd
000002d0: bebc 943c 08d8 223e f4db a93c dcb8 8bbb
000002e0: 7c55 ecbc 6e6c d1bd ae0f 183e 2c06 f3bc
000002f0: d7ac 0a3e 10bc 2dbd 73b6 05be cecc 89bc
00000300: b286 833c 33db 783d 7a17 1cbe ec3e b93d
00000310: f5d5 dfbb 987f 2f3e 1164 2d3d 7e18 03be
00000320: 7688 c23d 0c1f 843d a6e0 523d 0935 1ebd
00000330: 57de c53d acd4 aa3d 98ff 47bd ac03 debc
00000340: 596a 893d 0e09 c3bd b4a9 d8bd ab3d b43d
00000350: 079e 07be 79ec 7e3d 4be6 4dbe fea5 c6bd
00000360: 11bc ed3c 1e97 4a3d 0781 af3d 8365 5e3d
00000370: 2008 00be c773 6fbc bd59 af3d 9c88 89bd
00000380: c7fd 223d f403 643d dde4 113e 1b26 973d
00000390: 8f13 10be dcdb 303d 7169 5ebc d851 be3c
000003a0: 4b0f a4bd 3827 f43c 70f2 dfbd 5b6b 7f3d
000003b0: 11cd b43d 4ca0 cebc e6bf 48bc a5d0 88bd
000003c0: fe38 b0bd f032 1c3e e83c 093e bb30 0a3e
000003d0: 2724 c63d 779d b73d 2ff8 e3bc c56b b93d
000003e0: cc11 2e3e 31f9 7e3d f9e9 193e 67d7 0abd
000003f0: f1a8 c43d bdfe ae3d 1208 0d3e 8e42 62bd
0.0059122588 0.015630929 0.16493306 0.16191514 0.13305894 -0.073885575 0.13755299 -0.10223877
0.14130217 0.116726235 -0.12000239 0.08445878 -0.021361345 -0.08062217 0.06597256 -0.003933111
0.1415442 0.13608846 -0.10920773 -0.009936644 -0.114529766 0.035833385 0.119303 0.048730474
-0.11673272 -0.14186583 0.008430893 0.06328571 -0.13500665 -0.09033408 -0.10430219 0.04227188
0.1006819 0.12332704 0.06246836 -0.070375636 0.029494107 0.04751967 0.028641142 -0.052714523
0.0791089 0.15289935 -0.031024512 0.15587738 -0.10006421 0.03684031 -0.17538638 -0.14397636
-0.00263592 0.15976581 -0.019972946 0.10493026 -0.13297527 0.037105173 0.13511392 -0.06355886
0.035052348 0.05594891 0.14841129 0.10062972 0.05644653 -0.009761912 0.11220141 0.01684742
-0.05735842 -0.10118661 -0.12503552 0.06979158 -0.13565964 0.1895732 0.06037088 -0.03191762
0.12164472 0.018612614 -0.09616953 -0.008591995 -0.001059065 -0.051686946 -0.017643973 0.08743794
-0.14037763 -0.005359502 -0.02824996 -0.13579287 -0.010965184 0.24599247 -0.13935441 -0.019070618
-0.07654971 -0.07924788 -0.010369489 0.035430506 0.14009775 -0.005758317 -0.050544314 -0.14535518
-0.04179848 0.15865688 0.115803145 0.024748603 -0.0042576827 -0.061578885 -0.14958681 -0.009326075
0.12685722 -0.028004384 0.15611552 0.034763746 0.008276428 0.12450611 -0.06499432 0.18572955
0.13681315 0.076501235 -0.042287134 -0.12783068 -0.11262247 0.0037710138 0.063399106 0.01869892
0.14081484 0.11982577 -0.025436597 0.06949143 0.028298223 -0.030687997 -0.116079 0.03318077
-0.13966325 -0.0375699 -0.008981562 0.08056842 0.014054437 -0.11927783 -0.048723284 0.11597602
-0.0146751115 -0.113847256 -0.023179224 -0.13147941 -0.0008530381 0.14258732 -0.13558973 -0.10305128
-0.045328397 0.016312705 -0.034472916 -0.03282483 0.14548452 0.14451939 0.024636017 0.13192591
-0.090855256 -0.034517813 -0.07478548 0.033290848 0.15062994 -0.07271482 0.11131447 0.16253632
0.045380335 -0.12612735 -0.05988542 0.12060589 -0.14687799 0.14663474 0.03240171 -0.039360177
-0.06564499 -0.022082299 0.089593194 -0.13198571 -0.19253333 0.059178527 0.004556806 -0.03029425
0.0958755 -0.12194148 -0.1333415 -0.089760326 0.018156406 0.15902722 0.020734765 -0.0042639803
-0.028849356 -0.102257594 0.14849731 -0.029666029 0.13542496 -0.04241568 -0.1305788 -0.016821291
0.016055439 0.06075592 -0.1524333 0.090452045 -0.0068309256 0.17138517 0.04233176 -0.12802312
0.09498684 0.06451234 0.051483773 -0.038624797 0.096615486 0.08341345 -0.048827738 -0.02710136
0.06709737 -0.095232114 -0.10579243 0.08800825 -0.13243876 0.062237237 -0.20107381 -0.09699629
0.029020341 0.049460523 0.08569532 0.054296028 -0.125031 -0.014615006 0.08562038 -0.06715509
0.039792802 0.055667832 0.1424746 0.07380315 -0.14069961 0.043178424 -0.013574944 0.023232386
-0.080107294 0.029803857 -0.10934913 0.06235824 0.08828176 -0.02522292 -0.012252783 -0.06680421
-0.086046204 0.15253806 0.1340214 0.13495152 0.09674864 0.08965581 -0.027828304 0.090537585
0.16998976 0.062249366 0.1503066 -0.03389683 0.096025355 0.08544681 0.1377261 -0.055239253

fc1.bias f4 [42]
00000000: a1cf 8b3d ee59 03bd 8c91 bb3d 66ef c7bc
00000010: ff98 90bc 60e7 b1bd 7405 b3bd e7c5 2ebd
00000020: a1ce 87bd 272d 023d 2600 d8bc 1fb6 13bd
00000030: b982 3abd efac 9dbd 28e4 e93d cf7c 14be
00000040: 62ed acbc 7959 873d 7351 b4bd 0a97 063d
00000050: cca2 243e 929f 1b3d 8e2b 1a3e 27f7 1c3e
00000060: 1cf8 2c3d 884c 8a3c 7147 80bd cd41 0a3e
00000070: 4a54 053e a5e2 3bbd d20c 3c3e 64d3 98bd
00000080: 534d 43bd 1aeb 3a3e f90a 843c 48ac 633c
00000090: 018d b93c 04fd 5bbd 76e7 9cbc 5bee 0bbe
000000a0: 9dd7 a83d 61f2 663d
0.068267114 -0.032068186 0.0915862 -0.024406146 -0.01765108 -0.086867094 -0.087412745 -0.042669203
-0.06631208 0.031781342 -0.026367258 -0.036062356 -0.045534823 -0.07699 0.114204705 -0.14500736
-0.021109287 0.066088624 -0.08804598 0.032858886 0.16077727 0.037993975 0.15055677 0.15328656
0.042228803 0.016882196 -0.06263626 0.13501664 0.13020435 -0.045870442 0.18364266 -0.074621946
-0.047681164 0.18253747 0.016118513 0.0138960555 0.022650244 -0.05370809 -0.019153338 -0.13665144
0.0824425 0.056383494

fc2.weight f4 [42, 42]
00000000: b96c da3d 9062 d83c 12de 05be 64d8 ca3b
00000010: 20d3 f13c ca04 9bbb a58f e33b 63c1 b63d
00000020: 00ff 143d 3624 c9bd e075 11bd 112d 453d
00000030: b606 c43d cd86 a3bd 7f59 e7bd 4cd4 a83d
00000040: abd5 fe3c eefe 50bd 67bc 183e e228 03be
00000050: cec8 0c3d fbbb 713d ec8f 0dbe 993b 2d3b
00000060: 850a b23d 3697 5a3c 4cad 1fbd 1d30 08be
00000070: 4060 0ebe f0a3 c9bd 13bc 11be b710 f43d
00000080: e0fb ab3c 7f7a e1bc 5181 023d 1166 c63d
00000090: a9da 06be e6c2 413c b0a6 113d 83e3 85bd
000000a0: eaf3 ec3d 7230 323c e79d b6bd 567b 093c
000000b0: 1cd5 323e 2e2f c53d 6578 663d 59b2 f23d
000000c0: 5b56 0e3e f46d 293e 6904 6dbd 0504 603c
000000d0: cc1e 83bd bf89 963b 6d75 153d 2069 cdbd
000000e0: 40ce 7bbc 1912 a43d bd2e 793a 61da 383d
000000f0: 9326 adbd 15ff 46bd ff74 283e 5301 2c3e
00000100: e5cb 1d3d 85f8 a3bc e0d5 41bd f526 933d
00000110: 50ad 043e de95 803b f9da 52bd 1833 ee3d
00000120: 5367 3a3d fdab 563d 37dd b13d 97df 5ebc
00000130: 27c6 b13c c847 7bb9 7cfa 09be b03c 653c
00000140: a2bd fc3d 7f43 263c 1b5d 0bbe 487d 033d
00000150: 5791 98bd 9406 42bd 2911 05be 43d5 c63d
00000160: b9b2 5abd 98f6 a7bc 8249 f33d ea3f d5bd
00000170: 237d f8bc 68be 5b3d b945 3cbd e915 a23d
00000180: 4f95 303d 20ae 2cbd b31f de3d 7a3a febd
00000190: 4194 573d b2ec 1abe 5a03 0b3e c0c6 a63d
000001a0: 8152 b8bd e890 05be 44b1 613d ddb5 aebd
000001b0: 2ed5 1a3d 873b acbb a4ec 123d ff3e 9e3d
000001c0: 55bd f03d d26e 1bbe b02d 58bd 9eba 9a3c
000001d0: 42e1 16be 5b16 853d edd3 863c 4187 88bd
000001e0: 8f1d e6bd add6 a03c 1453 9c3d 1cd1 adbd
000001f0: 3b7d 803b 34c8 b6bd 0390 00be 5803 b83d
00000200: 0d0d 883c 1f63 eb3d a990 383e bc95 343e
00000210: fdb7 04be 76c0 503d f3ea f8bd 887d 633e
00000220: 40bd 77b9 4453 533e e611 363e 80b2 0f3e
00000230: 11d7 c6bd e7c0 f83d 814e 243e 110a 053d
00000240: e762 a0bd c8f3 bebd ba73 613b 96c8 88bd
00000250: 6e60 b13d fd8b ce3d ff37 253e 303c 49bd
00000260: 54b8 0b3e d69b bcbd 6a96 293e 1a56 d43c
00000270: 9de6 42bd 9418 783b 5a92 edbd 2b5f 983b
00000280: a95e 65bd 8317 733d 7a4d 6b3c 1cd0 413d
00000290: ffed fe3d 95c3 bfbc c748 e0bd ccf0 163e
000002a0: 2734 12be 2f1f c6bd c480 613e 4ae2 03bb
000002b0: 57e2 f9bd 351d 053e 2c3c 54bc 99c0 b43d
000002c0: 60cd cfbd 4db6 dfbc 0ccb f6bd e4b4 88bc
000002d0: b04e 0f3e 2c15 123e e9bb 903d 4be9 08be
000002e0: dbb5 133e 36cf 3d3e ce47 90bd 0c8d 96bd
000002f0: da12 063d de1d 3bbd 5b59 bcbc 0c3d a3bd
00000300: 44c5 0d3d 9eb2 96bd 8240 02be 2972 563d
00000310: c831 433e 17d5 5e3d 3fd7 453e 5ac2 c43c
00000320: 47f3 b7bd f913 df3d 2856 ef3a 4551 95bd
00000330: 9e99 3bbd 0c88 0cbc d3f4 b3bd 5503 153e
00000340: fd18 a7bd a0f4 5c3d a8bd e9bc 570a 09be
00000350: d6ec e83d 10f7 babc b04b 9dbd 2c8e 463d
00000360: 1cdd 983d 9e88 c4bd ed47 063e a771 9abd
00000370: 3f17 1cbe 8a19 4dbd 396c f2bd c88c 963c
00000380: 166c 88bd 88b8 343d 9cc3 c03d 80e1 a23c
00000390: e282 14bd 4864 c2bd 00bf 61bb 5e0d bd3d
000003a0: c6d4 0dbd 12cb d13d 785a 833c 2e91 c23d
000003b0: 8216 eabd 408f 78bb 00ce 3b3c c66b 18be
000003c0: bab2 bdbd 6868 cebc 46a5 fe3d 964d fd3d
000003d0: 449c 4e3d 9903 16be e6a9 c3bd 8035 323c
000003e0: e00f eebd 7c04 e5bd f0ea f0bd 4f8d 0f3e
000003f0: b0a0 83bc 897e 553d f6c2 19bd da10 f7bd
0.106652685 0.026414186 -0.13072994 0.0061903466 0.029519618 -0.0047307955 0.006944614 0.08923604
0.036376 -0.0982136 -0.035512805 0.04813868 0.095715925 -0.079846956 -0.11296367 0.082436174
0.031107744 -0.05102437 0.1491562 -0.12808564 0.03437119 0.059017163 -0.13824433 0.0026433228
0.08693413 0.013341716 -0.03898363 -0.13299604 -0.13903904 -0.09845722 -0.14231901 0.119172506
0.020994127 -0.027524231 0.031861607 0.09687436 -0.1316935 0.011826253 0.035559356 -0.06537535
0.115699604 0.010875808 -0.08916836 0.008391222 0.17464107 0.096281394 0.05626716 0.11850423
0.1390013 0.1654585 -0.057865534 0.013672833 -0.064023584 0.0045940573 0.03648894 -0.10029817
-0.015368998 0.08011264 0.0009505561 0.045130137 -0.08454623 -0.04858311 0.1645088 0.1679738
0.038524527 -0.020015964 -0.047323108 0.07185165 0.12956738 0.0039241156 -0.05147836 0.11630839
0.045508694 0.052410115 0.086847715 -0.013603113 0.021700932 -0.00023963966 -0.13474458 0.01399152
0.12340857 0.010147928 -0.13609736 0.0321019 -0.074495964 -0.047369555 -0.12994827 0.09708645
-0.0533931 -0.020503327 0.11879255 -0.10412581 -0.030333107 0.053648382 -0.04596493 0.07914335
0.04311114 -0.042158246 0.1084589 -0.12413497 0.05263162 -0.15129355 0.13575497 0.08143377
-0.09000111 -0.13043559 0.055100694 -0.085307814 0.03780096 -0.0052561196 0.03587021 0.07726859
0.11754862 -0.15178993 -0.052777946 0.018887814 -0.14734367 0.064984046 0.016458476 -0.06666423
-0.112361066 0.019633615 0.076330334 -0.0848715 0.0039211786 -0.089249045 -0.12554936 0.08985013
0.016607786 0.11493515 0.18023933 0.17635244 -0.12960811 0.050964795 -0.12154188 0.22215855
-0.00023626257 0.20637232 0.17780265 0.14032936 -0.097089894 0.12146168 0.16045572 0.032480303
-0.07831364 -0.09323841 0.0034401254 -0.06678884 0.08660971 0.100852944 0.16134642 -0.049129665
0.13644534 -0.09209411 0.16561285 0.025919963 -0.04758321 0.0037856447 -0.1160018 0.004650017
-0.055998478 0.059348594 0.014361734 0.04731761 0.12447738 -0.02340869 -0.10951381 0.14740294
-0.14277707 -0.096739165 0.22021776 -0.0020123892 -0.12201374 0.12999423 -0.012953799 0.088257976
-0.10146594 -0.027308607 -0.12050447 -0.016687818 0.1399486 0.14265889 0.07067091 -0.13370244
0.14424841 0.18536076 -0.07044946 -0.07351121 0.032732822 -0.04568278 -0.022991827 -0.07970628
0.034611955 -0.07358287 -0.1271992 0.052354965 0.19061959 0.054402437 0.19320391 0.024018455
-0.08981948 0.10892481 0.001825993 -0.072908916 -0.045800798 -0.008577358 -0.08786931 0.14552052
-0.08159063 0.05394423 -0.028532818 -0.1338285 0.11373298 -0.022822887 -0.07680452 0.04847543
0.07464048 -0.0959637 0.13113375 -0.07541209 -0.15243243 -0.050073184 -0.11837048 0.018377677
-0.06661241 0.044121295 0.094123095 0.019882917 -0.036257632 -0.094917834 -0.003444612 0.09231065
-0.034626745 0.10243811 0.01603435 0.09500347 -0.11430074 -0.003792718 0.011462688 -0.14884862
-0.09262605 -0.02519627 0.12433867 0.12368314 0.050441995 -0.1464981 -0.0955389 0.010877013
-0.11624122 -0.11182496 -0.11763561 0.14018749 -0.016067833 0.052122626 -0.037539445 -0.12063761

fc2.bias f4 [42]
00000000: 61ad c6bc 26e1 7a3c d92a 84bd b778 1d3e
00000010: ef63 bcbd d62a 08be e5fe 13be 2237 1f3e
00000020: 4f75 6cbd ca45 d4bd 2a71 953d 077f 9d3d
00000030: 0007 133e 8288 ca3d eab9 e7bc b76f e4bd
00000040: bec7 1dbe 3ca6 f83d f70d d13d 352c 733d
00000050: 7bd0 cc3b 66a7 16be 2389 273e da3d 1abe
00000060: a04a f8bd c645 d1bd bbce 043d 700f 133e
00000070: 3f78 453b ccdb 0a3e 966e 3d3c fe26 303b
00000080: 7e5a 2c3e 90a1 ff3d 306d aabd 5ab3 ed3d
00000090: 594c b83d aa01 f83c c767 1cbd f85b 303d
000000a0: 322a f23c 751c 073e
-0.024252595 0.015312469 -0.06453485 0.1537808 -0.09198748 -0.1329759 -0.14452703 0.15548375
-0.05772906 -0.10364874 0.07296975 0.07690244 0.14358139 0.09889318 -0.028286893 -0.111541204
-0.15408227 0.12141082 0.10207742 0.05936833 0.0062504387 -0.14712295 0.16360907 -0.15062657
-0.121236086 -0.10218386 0.032423716 0.14361358 0.0030131487 0.13560408 0.01156201 0.002687871
0.16831395 0.124819875 -0.08321607 0.11606474 0.08998937 0.030274231 -0.038184907 0.04305646
0.029561136 0.13194449

fc3.weight f4 [42, 42]
00000000: 9f65 ddbd 17b2 09bd 1ffc 963d 8dbe 8abd
00000010: a620 2abd 0e53 bf3d 30e3 d9bc 7c92 1d3e
00000020: 9bdd 1fbe da76 0c3e 04fb ce3d a36f 9b3d
00000030: 3152 9c3d d95b b6bd 5afb 7dbd ec73 fdbb
00000040: e387 9dbd 7146 d7bd 477d 663d 1211 85bd
00000050: 816f 493d 755c b33c e79b 2a3e 89e7 39bd
00000060: 4894 8ebc 3855 19be e020 fdbc 596c aebd
00000070: da27 9c3d 5fb2 4d3c 4a2c 50bd 5883 5ebd
00000080: fd10 ca3d 0475 4e3c 4fa5 e6bd 566d 633c
00000090: ccde 08be 08c2 b6bd fd1c 183e a38a 383e
000000a0: 4d62 eebd 3387 88bd fe3a ce3c 04e6 98bd
000000b0: 07b7 8d3d 1b60 66bd bbbf 44bd 34ef afbd
000000c0: b04f b1bd 9d5f babd 3733 47bd ed46 11bd
000000d0: 1b73 fe3d a16b 1abc e9d9 863d d444 253e
000000e0: 5f3e 393e 3858 abbc 1e2c ef3d 63c4 86bd
000000f0: 9f69 923d 9e3d 603d 1c0f 32bd 050d 32bd
00000100: 1267 f03d e182 d0bd 9a58 cb3d 449d 7c3c
00000110: b0eb 3d3d 86af 143e 99df ebbd c964 19bc
00000120: bd29 623d f676 023e ced5 b2bd 4a78 c3bd
00000130: 28e3 4b3d a3eb 55bd 5c8e 263e 626e 7c3c
00000140: d7f6 e8ba db59 6039 e0c3 62bd c3f1 89bd
00000150: 2046 dc3b f232 e9bd 5a98 c5bd 6f4f 083e
00000160: d5a8 7c3b ee16 a93d c0e4 263d 9847 fe3d
00000170: 8cc7 853d 20f2 ea3d 2b1b 463d b987 4dbd
00000180: 014d efbd 04ca 6dbd 0544 ebbc 6869 fe3d
00000190: 70db 65bc d19e fdbd ca54 0ebc 36a8 703d
000001a0: 37fc dc3d 0052 3c3b 7a01 24bc 671d 10be
000001b0: 3680 66bd 98b0 02bd 14f2 d13d 6511 073e
000001c0: b7f4 073e 6e7f 2cbd 903a 1cbe 8bd6 0dbe
000001d0: 1361 c7bc 340b f1bd 9012 0ebc 098a 843b
000001e0: 4eb2 e8bd 4389 d93d e254 d0bc 6335 83bc
000001f0: b665 4dbd ac9e 073e c7b3 17be 118c cdbd
00000200: d633 07be 83f2 3c3e 3ee5 393e 6bcd 053e
00000210: c250 88bc 10ac ccbd feb9 11be 8ebc 4ebd
00000220: 3019 0dbd cabe adbd 2aff 17bd 91c3 a93d
00000230: 77ce 3bbd 827f 1cbc 6e22 f63d 6090 22bd
00000240: d377 d2bd 0464 bc3b 8b8e 433e 48cb 0ebe
00000250: 5e9a a43d 8e54 84bd 507d ad3d 2410 d73d
00000260: 1fb8 a33d 1e41 f73d ed05 cebd 9a02 273e
00000270: 20bb 06be 2393 13be 0f6b 823d a5d7 273e
00000280: 4025 29bc 0b8f e5bd 07b3 93bd 49e3 24bd
00000290: e272 a9bd 8be2 3a3e bfa6 e3bd ad69 2e3e
000002a0: ef9e 09bd 207b b8bd 0c0d 91bd 40ee a0bd
000002b0: fda7 803d a68c babd 04f0 13bc 0dc0 41bd
000002c0: a301 613b 6ba9 b9bd 8a5c 153e 6e26 d7bd
000002d0: ebba b6bd 76e8 1a3d 792f 4a3d 3e6a ab3d
000002e0: 4db5 063e e06c 2a3e 2f52 2a3e 0047 093e
000002f0: 2a6b 4a3d e7bf 03be e787 80bc a09f c2bd
00000300: 38b0 30bd e797 d9bd 007d c0bc 49f1 c03c
00000310: ea70 203e d217 eb3d b82a 3bbd 4d98 123e
00000320: 13d3 043e 3b52 8bbd 717d 0e3e 97ee 883d
00000330: f699 2b3d ddc0 04bd 6235 0dbd 762b e93c
00000340: 83b1 613d 2310 9ebd 4a9c 2bbd 02d8 cc3d
00000350: ec8c 6c3d ee0f 0f3e bf26 abbd a250 06bd
00000360: 8898 a93c dfd4 2bbd fbad a4bc 777a b53c
00000370: 6e0a d03b d831 023e eb52 363b 67a9 0fbe
00000380: 9a31 b6bc b19b 4d3d 0eb7 5ebd 20ff 81bc
00000390: b8e6 22bd 0e31 b7bd be8c 9bbd 6825 bb3c
000003a0: 5fc7 a83d 9d4e 0b3e 792a c2bd a67d 8a3d
000003b0: 3aa6 b83d cd4c c9bc 33e4 ecbd c43f 083e
000003c0: 24b4 a73c d76c 12be fc0b b83d bd19 333d
000003d0: 9027 083c 6995 1ebe 9ea3 fd3d ef7e a63d
000003e0: 04f4 e33d cb5e 6ebc a89a 08be 58ba 98bd
000003f0: 487d e1bd 8f1d 543d 3f3b e3bd cf2f 13be
-0.10810398 -0.033617105 0.07372307 -0.06774626 -0.041535042 0.09342013 -0.02659759 0.1538791
-0.1561188 0.13717213 0.10106471 0.075896524 0.07632864 -0.08904237 -0.062007286 -0.007734766
-0.07691934 -0.105114825 0.056271818 -0.064973965 0.049178604 0.021894673 0.16661035 -0.045386825
-0.01740469 -0.14973915 -0.030899465 -0.085167594 0.076247886 0.012554734 -0.050823487 -0.054324478
0.098665215 0.012601141 -0.11261999 0.013881048 -0.1336624 -0.08923727 0.14854808 0.18021636
-0.11639843 -0.06666412 0.025174614 -0.07465747 0.06919675 -0.056243997 -0.04803441 -0.08590546
-0.08657777 -0.09100268 -0.048632827 -0.03546803 0.124242984 -0.009425075 0.06584532 0.16139537
0.18090199 -0.02091609 0.116783366 -0.065804265 0.07149052 0.054746263 -0.04347144 -0.043469448
0.11738409 -0.10181213 0.09929009 0.015418354 0.046367347 0.14520082 -0.11517257 -0.009362408
0.055215586 0.12740692 -0.08732186 -0.09544428 0.04977718 -0.052226674 0.16265243 0.015407177
-0.0017773759 0.00021395778 -0.055362582 -0.067355655 0.0067222267 -0.1138667 -0.096481994 0.13311552
0.003855278 0.082563266 0.040745497 0.12415999 0.06532201 0.11471963 0.048365753 -0.050178263
-0.11684609 -0.058053985 -0.028718958 0.124224484 -0.014029369 -0.123838075 -0.0086872075 0.05875417
0.10790294 0.00287354 -0.010010118 -0.14073716 -0.056274615 -0.031906694 0.10251251 0.13190229
0.13276945 -0.042113714 -0.15256715 -0.13851373 -0.02433828 -0.11769715 -0.008671418 0.0040447754
-0.11362134 0.10621884 -0.0254311 -0.016016668 -0.050145827 0.13244122 -0.14814673 -0.10036481
-0.13203368 0.18451886 0.18153855 0.13066642 -0.01664007 -0.09993756 -0.14231107 -0.05047279
-0.03444785 -0.08483656 -0.037108578 0.082892545 -0.045851197 -0.009551885 0.12018286 -0.039688468
-0.10276761 0.0057492275 0.19097345 -0.13944733 0.08037256 -0.0646144 0.08471167 0.105011255
0.07994103 0.12072967 -0.10059724 0.16309586 -0.1315732 -0.14411597 0.06368076 0.16390856
-0.0103238225 -0.11208924 -0.07211881 -0.04025582 -0.08273865 0.18250482 -0.11115789 0.170325
-0.033598837 -0.09007859 -0.070825666 -0.078579426 0.06282041 -0.09108858 -0.009029392 -0.047302295
0.003433325 -0.09065517 0.14586082 -0.10505377 -0.089223705 0.03781935 0.04936168 0.083698735
0.13155098 0.16643095 0.16632913 0.1340599 0.049418606 -0.12866174 -0.015689803 -0.09503102
-0.043136805 -0.10624676 -0.023497105 0.023552554 0.15668073 0.11479153 -0.045695037 0.1431591
0.12971143 -0.068027936 0.1391504 0.066861324 0.041894875 -0.03241049 -0.034474738 0.028463107
0.05510093 -0.077179216 -0.041897096 0.10002138 0.05775158 0.1397092 -0.083569996 -0.03279174
0.020702615 -0.041951057 -0.020102492 0.022153122 0.0063488996 0.12714326 0.002782042 -0.14029466
-0.022240449 0.050197307 -0.054373793 -0.015868723 -0.03977081 -0.08944903 -0.07595204 0.022844985
0.08241152 0.13604207 -0.09480757 0.06762247 0.0901608 -0.024572754 -0.11566963 0.13305575
0.02047164 -0.14299332 0.08986661 0.043725718 0.008310214 -0.15486683 0.12384723 0.081296794
0.11130527 -0.014548968 -0.13340247 -0.07457417 -0.110102236 0.051786 -0.11095285 -0.14373706

fc3.bias f4 [42]
00000000: ca9a 4f3d 222d d73d 502a 05bd 9a38 38bc
00000010: 987e 173e 3819 bbbd 6128 0c3d 7b2a c83d
00000020: 1ecc cf3d 9fb8 063d 84a1 843d b85c 6e3d
00000030: 2c8f e83d ee3b 04be 2666 9c3d 7774 b9ba
00000040: efc4 72bb b850 8c3d 4621 6ebc 5cb8 a23d
00000050: 68bc e3bd 37a9 503d d3ee 1e3d 8f3b c63d
00000060: 5c99 193e 2061 233d c67f e03d 0cdb 743c
00000070: 2689 f03d e5c0 283d b010 f4bd af3f 863d
00000080: 58a6 cfbd d16a f43d 7f57 933d ea14 cbbd
00000090: 0a62 a73d 8b1c d13d 9998 cc3d f237 36bd
000000a0: 7b68 a2bc 92d2 72bd
0.050684728 0.10506655 -0.032511055 -0.011243964 0.14794385 -0.091356695 0.034218196 0.097737275
0.10146354 0.032890912 0.06476119 0.058193892 0.11355433 -0.12913486 0.07636671 -0.0014149089
-0.003704365 0.068513334 -0.0145343 0.0794532 -0.1111992 0.050942626 0.03880198 0.09679329
0.14999908 0.039887547 0.10961871 0.014944803 0.11744909 0.041199584 -0.119172454 0.065551154
-0.101391494 0.11934436 0.07194423 -0.099160984 0.08172996 0.10210522 0.09990043 -0.044486947
-0.01982521 -0.059282847

fc4.weight f4 [42, 42]
00000000: 671e 683c f790 bf3d 8e23 f5bc 59c8 c6bd
00000010: 8006 2f3e bc6a c1bd 470e a6bd 25c8 043d
00000020: e94e d93d bfcf 923d b879 523d aa80 6e3d
00000030: b28e f03d a008 19bc ba59 4a3d b27b 21bd
00000040: a19c de3d 1e07 203d c920 0a3e cbfd 393b
00000050: 20e6 b23c 9f78 86bd 50c8 2a3e 2077 39bc
00000060: 7109 2b3e cf76 263b b94c e1bc 4cee c63d
00000070: 4648 2bbd 1246 1fbd 58fb 663d 2e11 3e3e
00000080: 6155 19be cf35 623d ec7a 97bd d48f 253e
00000090: ecb8 bebd dbae d43d 4f54 8fbd 3422 b93d
000000a0: fee3 053e 0554 023e bc80 55bd 0095 833c
000000b0: 5aee 1dbe 3a92 82bd 6f63 0b3e 40ae edbb
000000c0: fadb a73d 68aa 46bd 7672 f1bd f07f a63d
000000d0: 681c 14bd 38c6 ac3d 8a2d 873d db87 003e
000000e0: 2abb 82bd c064 24bc 302c 873d 84f8 093d
000000f0: f2d3 85bd dee4 943d 3067 a53c 6e9d a53d
00000100: ba55 ad3d 68c2 82bc 6835 c5bd 0054 b23a
00000110: 228f 92bd adaf a7bd 2030 c1bd 72c3 8d3d
00000120: b9d1 143e 4884 d0bc f876 883c c859 9cbd
00000130: f529 15be 4069 be3b f7df a6bd da2b 67bd
00000140: 4e7b ff3d 5ed1 e43d 9b4a 113e 0852 983c
00000150: c784 1e3e b887 373e 3950 cbbd f636 e43d
00000160: 38ed edbc be58 b7bd b21a f1bd 05b3 d93d
00000170: ab91 c9bd c0e2 d93d b5d3 0a3e 330f 303e
00000180: aa6e f0bd 3083 b83d fea4 0d3e 9506 3b3d
00000190: 44ca 07be 4461 9bbd 97fc 033e cd08 16bd
000001a0: 5eb2 5ebd ae94 60bd 061c 04bd e55f 31bd
000001b0: dd7a aabd 9d63 d13d b7e2 9cbc 3184 8b3d
000001c0: 0689 06be 6ac9 49bd 0084 b5ba d51e 2b3e
000001d0: 28c3 f6bd 9782 89bd 6e7e b0bd f7ae 7f3d
000001e0: 5f31 d63d c1d1 053e 0251 373d 9c12 dcbd
000001f0: 3171 263e 7217 d2bd a400 133e 9d54 903d
00000200: 0f62 10be 80be 91bd 8669 50bd c91b 8abd
00000210: 8847 ea3d 05ff 4abd 4271 bcbd 7d27 b83d
00000220: db2f 633d afa9 c3bd b3a9 053e c563 a7bd
00000230: cb03 293e d231 383d fb6c d23d 2e16 80bd
00000240: 9065 a43d e204 423d 0e32 aebd 5bef 8b3d
00000250: 39af 023e 96ad 0b3e 6f51 02bd 792e 043e
00000260: 424f 203e e654 d23d a643 dd3d 3052 50bc
00000270: d37e 80bd 474f a83d 8c26 b93d 735c 5b3d
00000280: eb17 3d3e 777e 01bd 05cb 8d3c 7be6 ca3c
00000290: 6cbb 333c 92db 953d d2be ab3d 3085 4d3d
000002a0: bdd1 083d 3759 e63d ad45 8cbc 851f 173e
000002b0: 1ab5 d13d 9be8 ca3d 20b9 703d d15b 8c3c
000002c0: deb9 ec3d 6e63 ef3d e6d2 783d ec5f 453d
000002d0: d447 65bb 0651 1cbe fa23 91bc 9754 ed3d
000002e0: 432a 1c3d 7a94 433d acbc da3c 634a 5b3d
000002f0: a042 43bc 7c6d 8bbd 22ec 043d d458 65bd
00000300: 1df2 8abc ffdd c93d a6d6 4bbd 02ae 96bd
00000310: 2a49 193e 5529 b43d 78ba a23c 91b5 a33d
00000320: 79ba 0a3e e523 a7bd 03b4 573c b72b 94bd
00000330: 9cee ae3d 379a ffbd 194a 5d3d f0e8 233d
00000340: d1b0 123e 9f07 183e b0de cb3c 27e5 003e
00000350: 8fd3 07be 1e9e 91bd e251 bdbd d6eb e03d
00000360: 3037 c7bc 8a1b acbd 22e1 30bd ffa6 efbd
00000370: 336c 9dbd 280c dd3c f633 b13d a0b7 8c3c
00000380: 1066 103d d835 65bd be7a d43d 7fd9 173e
00000390: be52 63bd 8893 a73c 84db 3d3d f6ea ef3d
000003a0: 7a60 993d c70e 1a3e cc50 0bbe f805 ebbc
000003b0: 60c1 9ebb 2a34 1cbe 1688 d13d 665b a43d
000003c0: a885 123d 6caf ba3d 200d 483d 2707 0ebe
000003d0: c371 8bbd 0020 933b 78ba 1f3d dfcb 173e
000003e0: ee55 29bd 5cdf 8c3d f563 0a3e b4dd d5bd
000003f0: 293d 023e fd0c 02be ea26 f93d ea0f c0bd
0.014167405 0.09353822 -0.02992418 -0.09706182 0.17092323 -0.09444186 -0.08108192 0.032417435
0.10610754 0.07168531 0.05138561 0.058228172 0.11745967 -0.009340435 0.049401976 -0.039424606
0.10869718 0.039069287 0.13489069 0.0028380032 0.021838248 -0.065659754 0.16677976 -0.0113199055
0.1670282 0.0025400405 -0.027502405 0.0971342 -0.041816972 -0.038885184 0.056392044 0.18561241
-0.14973976 0.055227097 -0.07396492 0.16168147 -0.09312615 0.103849135 -0.069985025 0.09039727
0.13075253 0.12727363 -0.052124724 0.01606226 -0.15422955 -0.06375547 0.1361215 -0.0072534382
0.08196254 -0.048502356 -0.1178941 0.08129871 -0.036159903 0.08436245 0.06600483 0.12551825
-0.06383355 -0.010033786 0.06600225 0.03368427 -0.06534566 0.072702155 0.020190805 0.08086668
0.08463617 -0.01596184 -0.09629327 0.0013605356 -0.07156207 -0.08187804 -0.09433007 0.06922044
0.14533128 -0.025453702 0.016658291 -0.07634312 -0.14566787 0.0058108866 -0.08148187 -0.056438304
0.124746904 0.11172746 0.14188616 0.018593803 0.15480338 0.17922866 -0.09927411 0.111432955
-0.029043779 -0.08952473 -0.1177267 0.106298484 -0.09842237 0.10638952 0.13557322 0.17193298
-0.117398575 0.09009397 0.13832471 0.045660574 -0.13260752 -0.07586911 0.12889324 -0.036629487
-0.054369323 -0.054829292 -0.032253288 -0.043304343 -0.083242156 0.10224078 -0.019151075 0.06812323
-0.13138208 -0.04926435 -0.0013848543 0.1671098 -0.12048942 -0.06714361 -0.086178645 0.06242272
0.104586355 0.13068296 0.04475499 -0.10745737 0.16254117 -0.10258378 0.14355713 0.07047389
-0.14099906 -0.07116413 -0.050881885 -0.06743581 0.11439425 -0.04955961 -0.0920129 0.08991907
0.05546556 -0.09553849 0.13053016 -0.081733264 0.16505353 0.044969387 0.102746926 -0.062542304
0.08027184 0.047367938 -0.08505641 0.06832763 0.12762155 0.13640437 -0.031815942 0.12908353
0.15655234 0.10270099 0.108039185 -0.0127149075 -0.0627419 0.08218246 0.09040555 0.053554963
0.18466155 -0.031614747 0.017308721 0.024768105 0.010969978 0.0731727 0.083860055 0.050175846
0.033403147 0.11247485 -0.017123068 0.14758117 0.102396205 0.09907647 0.0587703 0.017133625
0.11558889 0.116888866 0.060748003 0.04818718 -0.003498544 -0.15265283 -0.01771735 0.115884
0.03812624 0.04774902 0.026701294 0.053537738 -0.01191774 -0.06807992 0.032451756 -0.055992916
-0.016961152 0.098567955 -0.04976525 -0.07357408 0.14969316 0.08796946 0.019864306 0.079936154
0.13547696 -0.08161143 0.013165477 -0.072349004 0.08541605 -0.12480586 0.054025743 0.04001707
0.14325263 0.14846657 0.02488646 0.12587415 -0.13264297 -0.071102366 -0.092441335 0.10982482
-0.024318308 -0.0840369 -0.043183453 -0.11701774 -0.07686653 0.026983336 0.08652489 0.017177403
0.035253584 -0.055959553 0.10374974 0.14829062 -0.05549883 0.02045609 0.046351925 0.11714737
0.074891046 0.150447 -0.1360504 -0.02868937 -0.0048448294 -0.15254274 0.102310345 0.08025245
0.035771996 0.0911549 0.048840642 -0.13869916 -0.06808808 0.0044898987 0.03899619 0.14823864
-0.041341715 0.0687854 0.13514693 -0.10442677 0.12718643 -0.12700267 0.121656254 -0.09378035

fc4.bias f4 [42]
00000000: 16dc dcbd 2ce5 f1bc 16d5 603d b1fe 403c
00000010: 858f 993d b5b8 c6bd f41d c4bd 7713 a6bb
00000020: bbd6 0c3e 2c52 7cbd 7bb7 f13d 67f8 b7bd
00000030: ab4d 20bc b0be 683d 12bc 9c3d a58b f13c
00000040: 07b7 2b3d 032f ef3d 2155 363d a9fc a73d
00000050: 0452 e53a 837f cebd a54f ab3d 1927 84bd
00000060: fa8b df3d 3617 e73d 38b3 b83d 1eb0 633c
00000070: 063b 8d3d 81da f33d 0591 6d3d 0974 c5bd
00000080: d4d9 fe3d 5a5e 073e 64a8 01bd cae8 06be
00000090: d5b2 f5bd 53f6 a23d 31ec 223e 89be 62bd
000000a0: 62a5 303e ef74 a4bd
-0.107841656 -0.029528223 0.054890715 0.011779473 0.07498077 -0.09703199 -0.095760256 -0.0050682384
0.13753788 -0.061601803 0.11802574 -0.08982926 -0.0097841425 0.05682248 0.07653059 0.029485533
0.041922595 0.11678889 0.04451478 0.08202488 0.0017495756 -0.10082915 0.083648 -0.0645277
0.1091537 0.11283724 0.09018558 0.01389697 0.068960235 0.11906911 0.05799963 -0.096412726
0.12443891 0.13219586 -0.03165473 -0.1317474 -0.11997 0.07957139 0.15910412 -0.05535749
0.17250589 -0.08030116

fc5.weight f4 [42, 42]
00000000: 7812 e43c 0044 c2ba a0c1 173c a6be 28bd
00000010: 8bff 053e 7a46 debd 400e 3d3d 06a3 e3bd
00000020: 9f0f 15be b818 3c3d 880c c6bd 26f4 6bbd
00000030: e86c e5bc fac2 f13d 4eef d8bd b06c 09bc
00000040: b813 cf3c 60b2 953d fd14 133e 2c12 4e3d
00000050: 9281 883d c260 b13d 0813 1fbd 8143 9abd
00000060: a87e a5bc b16f 1a3e 20cd 96bb 0087 dabd
00000070: 1c2b bd3d 6e43 cd3d 7ca2 76bd 50ec 243c
00000080: 4914 143e 0018 f8bb 1acc 983d f292 a93d
00000090: 408b fa3c 62eb 16be 2c37 0bbe a0b2 9e3b
000000a0: 401e 263b 98be 9fbd 809c e93c a8e1 06be
000000b0: 346e 1c3d 96f6 e43d 28c9 c33d 9063 e53c
000000c0: 2ff3 c2bd 78b2 893d e86c d7bc c098 be3b
000000d0: 588a 2d3d 78b6 5d3d 1030 a73c 3018 a93c
000000e0: 70a8 af3c ba3b d63d 1a69 b83d 94f3 2e3d
000000f0: 7498 6a3d 9e3e 16be 0860 c33c 7273 b33d
00000100: 9ed3 fd3d 5560 11be 9046 6bbd 8fda 153e
00000110: 18ce 44bd 6bf5 11be c0dd ec3c 980b 623d
00000120: 240f 7c3d fcac f0bc c2b7 f23d dec2 95bd
00000130: 37b6 04be b541 183e 5209 0fbe 78c1 233d
00000140: 8a1d d8bd 92cb e03d d073 6e3c 94e0 6e3d
00000150: 70ac bd3c b8e5 9b3c 845e cebd a5e0 1c3e
00000160: 4a40 c43d 8aaa 08be ff8c eebd 8585 093e
00000170: 2089 cb3c 01de 063e c2a3 a23d 7a91 c63d
00000180: e8c5 77bd 9794 153e c800 6d3d 7c86 28bd
00000190: 4e70 f63d a543 0cbe c06d ddbb 7e43 42bd
000001a0: 5c8e 9bbd b64a 00be 0085 5f3c c264 813d
000001b0: 26ad b13d 6ca7 243d fce9 29bd ea43 e03d
000001c0: 00b0 06b9 a077 c4bb 1300 023e 7913 afbd
000001d0: f0d9 e1bd c008 3fbc 22c4 03be 2a9b 26bd
000001e0: 6c65 933d 2617 1cbd 3466 fbbd 90cf 983d
000001f0: c973 b3bd 4f5c 103e d449 ba3d 2044 e03c
00000200: dfd8 0f3e 00c8 f43a 4e59 d73d 8974 90bd
00000210: 010d 1a3e da94 d03d 407f cfbc d60e c73d
00000220: acd9 0b3d 403a 533c 9ea0 853d 4704 8bbd
00000230: 309b 0f3d 556e 09be 405b 7c3d 5ae6 863d
00000240: bc03 7cbd 6c55 68bd de2d d4bd 8348 173e
00000250: b607 d83d b06c 603d 9bbd 013e b036 f5bc
00000260: f096 663c 1c69 0ebe 924e c1bd 7075 76bc
00000270: a98d 0c3e 661d 813d fb3b 09be 7a19 873d
00000280: 76da 09be a703 173e 806f 0c3c 7a3c f43d
00000290: a05f 3bbd 5c5d 00be 1261 f03d c425 783d
000002a0: 321f c43d e0c1 f7bb cac0 59bd 532f 073e
000002b0: 23cd 1dbe 8020 96bd e0f6 243d 00cb efbc
000002c0: 08d5 d63c f032 793c 96c7 09bd d228 bd3d
000002d0: 28f0 15be 1585 103e e44a 6a3d d02b 4a3d
000002e0: 08b1 4cbd ae0a c2bd 1692 19bd d06b 363c
000002f0: 003f 25bd 2a49 e93d f09f 923c 02cc df3d
00000300: 724c b43d 1063 563c 1757 08be 94a1 b6bd
00000310: 20f7 253c fc20 44bd c09e 373d 41b5 06be
00000320: 39e6 133e dadc b53d 262c f9bd c0a3 d0bb
00000330: 081d d4bd 22db cf3d 3567 18be f0bf e83c
00000340: 1e33 7fbd 0c6a 8f3d 5461 973d 4f8a febd
00000350: 3662 ba3d 973b 043e 7e65 27bd 5cc2 7f3d
00000360: 1cba e7bd 5fc4 033e 68d2 1bbd aaed a83d
00000370: 9044 043d 509d 10bc a82f c2bc 5227 bb3d
00000380: 5a45 e63d a561 163e dc22 13bd c8ff a3bc
00000390: 4a7d d73d c074 7fbb 1886 99bc f32a c8bd
000003a0: 3f98 a4bd 3c3f a2bd 641c 983d f3d6 11be
000003b0: f7ec 113e 5c4c c6bd 680e 0c3d ce5a fd3d
000003c0: c8fa f2bd e892 033d 24d6 c6bd 3634 ee3d
000003d0: 7208 7ebd bc1a b33d 1285 d2bd 0059 a7ba
000003e0: 8068 223b ac7e 9f3d b2ae ce3d b276 24bd
000003f0: 2ccd 063d c019 a2bb 801d 1d3c 50e8 2a3d
0.027840838 -0.0014821291 0.009262472 -0.04119744 0.13085763 -0.10853286 0.046156168 -0.11115079
-0.1455674 0.04592201 -0.09670359 -0.057605885 -0.028006032 0.11804767 -0.10592519 -0.0083877295
0.025277957 0.07309413 0.14363475 0.0503103 0.066653386 0.08661033 -0.03883651 -0.075324066
-0.020201996 0.1508167 -0.0046020895 -0.106702805 0.09236738 0.10022627 -0.06021355 0.010066107
0.14460863 -0.0075712204 0.07460804 0.08279981 0.030583978 -0.14738229 -0.13595265 0.004843071
0.002534762 -0.07800025 0.028517008 -0.13172019 0.038191035 0.11179845 0.09559852 0.028001577
-0.0951904 0.06723493 -0.026297048 0.005816549 0.042368263 0.054129094 0.02040866 0.020641416
0.021442622 0.10460611 0.090044215 0.042712763 0.057274297 -0.14672324 0.023849502 0.08762254
0.123938784 -0.14196904 -0.05744034 0.14634155 -0.04804811 -0.14253776 0.028914332 0.055186838
0.061537877 -0.02937936 0.11851455 -0.073125586 -0.12960134 0.14868815 -0.13968399 0.039979428
-0.10552509 0.10976328 0.014553979 0.058319643 0.023153514 0.019030437 -0.10076621 0.1532007
0.09582575 -0.13346305 -0.116479866 0.1342984 0.02484566 0.13170625 0.079413906 0.09695716
-0.060491472 0.14607464 0.057862073 -0.04114388 0.12033139 -0.1369768 -0.006757468 -0.047427647
-0.07595512 -0.125285 0.0136425495 0.06318046 0.086756036 0.04019873 -0.04148291 0.109504536
-0.00012844801 -0.0059957057 0.12695341 -0.08548636 -0.110278964 -0.011659801 -0.12867787 -0.04067532
0.07197079 -0.038108014 -0.12275353 0.074614644 -0.08762319 0.14097713 0.09096113 0.027376235
0.14047574 0.0018675327 0.105150804 -0.07053477 0.15044023 0.10184641 -0.025329232 0.097196266
0.034143135 0.012892306 0.06524776 -0.06787925 0.035060108 -0.13420995 0.06161046 0.06586905
-0.061527 -0.05672209 -0.10360311 0.14773755 0.10548346 0.054791152 0.12669985 -0.029933304
0.014074072 -0.13907284 -0.09438814 -0.015042648 0.13725914 0.063044354 -0.13401787 0.06596656
-0.13462242 0.14747487 0.008571506 0.119255975 -0.045745492 -0.12535614 0.11737265 0.06058289
0.095762625 -0.0075609535 -0.053162374 0.13201647 -0.15410285 -0.07330418 0.0402745 -0.029271603
0.026224628 0.015209898 -0.033637606 0.092363015 -0.14642394 0.14113267 0.057200328 0.04935819
-0.049973518 -0.09474693 -0.037492834 0.011134103 -0.040343285 0.11390908 0.01789853 0.10927583
0.08803643 0.013085142 -0.13314472 -0.08917537 0.01012972 -0.04788302 0.04482913 -0.1315508
0.14443292 0.08880015 -0.12166624 -0.006367177 -0.103571 0.10149218 -0.1488312 0.028411835
-0.06230461 0.07002649 0.07391611 -0.12428724 0.091007635 0.12913357 -0.040868275 0.062441215
-0.113147944 0.12867878 -0.038042456 0.08248456 0.03229195 -0.008826569 -0.023704365 0.09138359
0.112436965 0.14685686 -0.035921916 -0.020019427 0.10521944 -0.00389795 -0.018740699 -0.09773817
-0.08036851 -0.07922217 0.0742729 -0.14242153 0.14250551 -0.09682533 0.034193426 0.12370835
-0.11864239 0.032122523 -0.09708813 0.11631052 -0.062019773 0.087453336 -0.102792874 -0.0012767613
0.0024781525 0.077878326 0.10091914 -0.04015226 0.03291051 -0.0049469173 0.009589553 0.041725457

fc5.bias f4 [42]
00000000: 8bd7 063e 10cc 92bd a047 06be 00be f43a
00000010: 7807 8b3d 5b16 04be 9a24 82bd 5c40 a5bd
00000020: 0646 e13d 787c 183d 97b3 113e 38f9 c1bc
00000030: 8f85 8dbd 8374 1c3e 50c1 afbc 9e68 c73d
00000040: ac61 873d 36d1 a5bd da99 d5bd 7c75 f2bc
00000050: c8d9 aabc 5ba8 a0bd a85d 143d 78cb b23d
00000060: 4870 7f3d d49d 583d b062 06bc ea34 91bd
00000070: 541f 8c3d 5bb1 0b3e c0ba ffbd a3cb 9abd
00000080: d084 783c 32c6 edbd b895 dcbc 80f2 803c
00000090: 244f 71bd 967e 3bbd 624d 02be d5e5 90bd
000000a0: 8e4e a3bd 2044 b4bb
0.1316816 -0.07167828 -0.1311326 0.0018672347 0.06788534 -0.12899153 -0.063546374 -0.08068916
0.10999684 0.037228078 0.14228664 -0.023678407 -0.0691024 0.1527882 -0.021454483 0.09736751
0.06610426 -0.080965444 -0.104297355 -0.029597037 -0.0208558 -0.07844611 0.03622213 0.08730215
0.06236294 0.05288489 -0.00820224 -0.07090171 0.06841913 0.13641874 -0.124867916 -0.07558372
0.015168384 -0.116100684 -0.02692686 0.015740633 -0.058913365 -0.04577502 -0.12724832 -0.07075087
-0.079739675 -0.005501285

fc6.weight f4 [42, 42]
00000000: 788b e43c 646c 6c3d e466 893d 38e5 0cbe
00000010: 36ee 903d 02ff 8b3d d033 2e3d 80e7 0d3d
00000020: 39a6 97bd 76cd c03d 168d c03d cf48 19be
00000030: 2801 c53c 234e 09be d661 4cbd 79b9 04be
00000040: ae30 c4bd 40ff d43b 0247 a2bd 7452 34bd
00000050: 229b 97bd b0ad fb3c ffa3 033e 880c 09be
00000060: 3041 0bbd 5053 343c 28ef 06be 2d0a 1d3e
00000070: 3800 a23d e08e 7dbc f0ee 3bbd 9e42 34bd
00000080: 48e8 a2bd 87ce a8bd b615 f33d 20c4 f63b
00000090: 484d 7ebd 7e31 a13d 8225 fc3d 40a8 30bc
000000a0: def9 8cbd 6829 243d 3a2c 2bbd 7073 30bd
000000b0: 3cf6 0bbe ccf6 7bbd 825e fb3d cfdc 0fbe
000000c0: 6279 b93d 0e2a 1abd 9830 743d 3920 163e
000000d0: e0b7 debc de26 16be c41f 22bd 500e ac3c
000000e0: 10c0 53bc c6b4 f1bd 4e78 ea3d d34d 0fbe
000000f0: 66c9 eabd ecf2 c5bd a45b 18be d137 99bd
00000100: f15a d6bd 51f3 97bd 4081 85bb e099 7dbc
00000110: 1609 0bbe f9bb 0fbe 70d7 a53d f886 eebd
00000120: 235b 01be 3bf8 113e 3e1d 27bd 8055 c8bb
00000130: f028 113c b921 b3bd a723 063e 68df 10be
00000140: 1793 033e 2464 8f3d e5fc 09be 42eb f03d
00000150: c18c 8fbd 3117 18be ae53 ba3d 2027 ebbc
00000160: 39c5 adbd 1842 7cbd 4038 49bd 988c b63c
00000170: dea3 d43d 544b 3d3d d9a9 11be 7ab9 c0bd
00000180: c17a 133e f975 a0bd 1021 2a3d 58a2 bd3c
00000190: 004d 0bbe edf9 083e b42c 003d ee8f 52bd
000001a0: ee73 cebd 88f4 b8bc 0ca1 9fbd c0e0 c23c
000001b0: 119b 083e ce38 923d 807d 61bd 680d b4bc
000001c0: 3e76 04bd 6188 95bd 8082 39bb 8233 e23d
000001d0: c834 cfbc f680 cf3d 6a16 d83d 985b 1b3d
000001e0: 4c48 493d b0a6 543c 1b82 053e 3dba 033e
000001f0: a46c fbbc ccaf 473d 22f0 a9bd ecab 0dbe
00000200: 10cd d4bc 403a 463b dae0 79bd bc86 433d
00000210: 951b f8bd 8a0e 16be 16c5 fa3d 5086 fcbc
00000220: 6851 873d a300 d5bd e0ec d6bb e0e4 063c
00000230: f49d 93bd e4fd 5f3d 60fc acbc 080a a33c
00000240: 5571 1b3e 2cd0 c7bd 20c6 0abc ef21 053e
00000250: 030c d1bd c82d 8e3d dccb 693d 7618 e83d
00000260: 695b 003e ec2f 28bd 88da d93c 40e1 f8bb
00000270: 5863 9dbd 62a5 f03d 5931 1abe a089 e3bc
00000280: 0037 f23c 0416 33bd 00dc d13b 3ae5 a13d
00000290: 0b50 17be f40a a83d 1a89 8e3d 5c49 273d
000002a0: e3cb 1a3e 6016 c2bc aa6f 07be 8c14 993d
000002b0: 00f2 113b 7664 a33d da76 b13d 202d 33bd
000002c0: 9824 df3c be8d f03d 0c7e 903d 205e 92bc
000002d0: c0bf 57bb b3ce 86bd a0e4 cd3c 98b4 213d
000002e0: 28d2 fd3c 1152 003e 8aed c73d 068c 0ebe
000002f0: 0709 1d3e d870 47bd c2bc 3cbd ddaa 0a3e
00000300: 5064 343d 25a3 053e 2e68 aa3d 0f4d 9bbd
00000310: 9c7c d6bd 40cd 8b3c 0063 723d 3ca7 50bd
00000320: e82a ba3c 700a 86bc 3e76 acbd e246 ed3d
00000330: 7045 103d cc6a 473d 4cdd dabd a81b eabc
00000340: 15cc b3bd 654c 1d3e 6042 29bc d081 6f3d
00000350: 68c5 f13c a081 5e3d 1beb 05be f466 e5bd
00000360: 30f4 c93c 3018 04be f52a 96bd 4dfe 1c3e
00000370: 7a21 ce3d 8a8e dbbd 20e6 e63b bc52 833d
00000380: 4a1c c2bd c042 e6bc 736b 053e dce1 54bd
00000390: 92d5 da3d 4856 dc3c dc31 0c3d 52d1 3abd
000003a0: 28a8 ffbd 044a bf3d d274 aebd 47c1 0a3e
000003b0: fd15 183e 47dc 023e 90d9 a23d 2082 403c
000003c0: fa61 e2bd 92b3 40bd becc e93d c041 35bc
000003d0: e07a 7e3d 3c9b 47bd 6050 22bc d071 87bc
000003e0: 40ec 0a3d 8531 0f3e 9aa1 a33d 5872 bd3d
000003f0: fcfa b43d 2804 bf3c c781 86bd dac1 c23d
0.027898535 0.057720557 0.06709078 -0.13759315 0.07076685 0.06835748 0.04252988 0.034644604
-0.07404751 0.094141886 0.0940191 -0.1496918 0.024048403 -0.13408713 -0.04989799 -0.12961377
-0.095795974 0.0065001547 -0.079237 -0.044023946 -0.07402636 0.03072247 0.12855528 -0.13383687
-0.033997715 0.011006191 -0.13177168 0.15335913 0.07910198 -0.015475959 -0.045882165 -0.044008844
-0.079544604 -0.08242517 0.118693754 0.007530704 -0.06208542 0.07870768 0.123118415 -0.010782301
-0.06883596 0.04007855 -0.041790225 -0.04307884 -0.1366815 -0.06151466 0.12273885 -0.14049076
0.09056355 -0.037637763 0.059616655 0.1466073 -0.027187288 -0.14663264 -0.039581075 0.021002918
-0.012924209 -0.11802058 0.114487275 -0.13994531 -0.11464195 -0.09665474 -0.14878708 -0.07481349
-0.104665644 -0.07419456 -0.0040742457 -0.015478581 -0.13577685 -0.1403655 0.08097732 -0.11646837
-0.12632422 0.14254849 -0.040799372 -0.006113708 0.008859858 -0.087466665 0.13099538 -0.14147723
0.12849079 0.07001522 -0.13475378 0.11763622 -0.070092686 -0.14852597 0.09097992 -0.02870518
-0.08484883 -0.06158647 -0.04912591 0.022283837 0.10382818 0.046214417 -0.14224948 -0.09410377
0.14402296 -0.078350015 0.041535437 0.0231487 -0.13603592 0.13376589 0.031292632 -0.051406793
-0.100807056 -0.02257754 -0.07794389 0.02378881 0.13340403 0.07139741 -0.055051327 -0.021979049
-0.032339327 -0.07301403 -0.0028306544 0.110449806 -0.025293723 0.10132019 0.1055115 0.037929147
0.049141213 0.0129791945 0.13037913 0.12864013 -0.030691452 0.048751637 -0.08297755 -0.13835114
-0.025976688 0.0030247122 -0.06100545 0.047735915 -0.12114636 -0.14653984 0.122446224 -0.030825764
0.06607324 -0.10400512 -0.0065589994 0.008233279 -0.072078615 0.05468549 -0.021116436 0.019902244
0.15179951 -0.097565025 -0.008470088 0.13001226 -0.10207369 0.06942326 0.05707918 0.113327906
0.1253487 -0.041061327 0.026593462 -0.0075952113 -0.07684964 0.11750294 -0.15057887 -0.027775586
0.029567242 -0.043722168 0.0064044 0.079050496 -0.14776628 0.08205214 0.06959744 0.040841445
0.15116839 -0.02369231 -0.1322619 0.07474622 0.0022269487 0.07978146 0.08665247 -0.043744206
0.027239129 0.11745785 0.070552915 -0.017867148 -0.0032920688 -0.065823935 0.025133431 0.03947887
0.030984 0.12531306 0.09762104 -0.13920602 0.15335475 -0.0486916 -0.04607845 0.13541742
0.044040978 0.13050516 0.08320652 -0.07583057 -0.10472986 0.017065644 0.059176445 -0.050940737
0.022725537 -0.016362399 -0.084209904 0.115857854 0.03522247 0.048685834 -0.1068674 -0.02857764
-0.0877916 0.15361173 -0.010330766 0.05847341 0.029513076 0.05432284 -0.13077967 -0.112012774
0.02465257 -0.12899852 -0.07332412 0.15331383 0.10064979 -0.107205465 0.007046476 0.06412265
-0.09478052 -0.028108 0.1302927 -0.05197321 0.106852666 0.02689661 0.034227237 -0.04560978
-0.12483245 0.09340289 -0.085183755 0.13550292 0.14852138 0.12779342 0.07951653 0.011749774
-0.11053844 -0.04704625 0.114160046 -0.011063039 0.0621289 -0.048732027 -0.009906858 -0.016533762
0.03391671 0.13983734 0.079898074 0.09250325 0.08836934 0.023317412 -0.06567722 0.095096305

fc6.bias f4 [42]
00000000: 3f3e 01be 3e19 f33d f04d e6bc cefd d0bd
00000010: 44ea ab3d 905e d2bc 41fa 073e 4af3 b0bd
00000020: 1a78 df3d 6e12 d83d 782a 0b3d 0c89 403d
00000030: 6e46 69bd 905d 08bc b62c ae3d 46ca 25bd
00000040: d04b 3fbc b4d3 863d 401b b33b fcd9 6ebd
00000050: 71e2 193e a002 20bd fc7b 17be 583e db3c
00000060: 9e55 d8bd ca7d 4abd 489e ba3c f5df 0c3e
00000070: bfa3 a9bd f37b 163e 7ab4 c93d eec7 fd3d
00000080: 129b f03d 41cb b4bd cce3 453d 28fc 673d
00000090: 9924 003e 8931 17be 29c4 19be 005c 5b39
000000a0: 562c e83d bcce 2e3d
-0.12621401 0.11870049 -0.028113335 -0.102046594 0.08394292 -0.025679857 0.13279058 -0.08640154
0.109115794 0.1055039 0.03397605 0.047005698 -0.056951933 -0.008323088 0.08504622 -0.040476106
-0.01167579 0.06583348 0.005465895 -0.058313355 0.15027787 -0.039065003 -0.1479339 0.026763126
-0.10563205 -0.049436368 0.022780553 0.13757308 -0.08283185 0.1469572 0.09848876 0.12391649
0.11748327 -0.0882783 0.048312947 0.05663696 0.12513961 -0.1476499 -0.15016235 0.0002091974
0.113365814 0.042677626

fc7.weight f4 [42, 42]
00000000: 6525 123e 20d1 193c c2a5 88bd 7227 f03d
00000010: a0a7 df3b b040 9d3d 87c8 f0bd d36c 97bd
00000020: 442f ffbc 838e d2bd 8e8c 78bd 0af3 fd3d
00000030: 6ae7 ec3d 94dd 73bd c04f 4c3d e226 e83d
00000040: 8538 193e 424c 8d3d 9b33 efbd 209b c23c
00000050: 100a 89bc 02dc c2bd 1440 cabd 2237 f53d
00000060: 9e52 9f3d 6846 bcbd 8935 0dbe e256 dbbd
00000070: fafb 8f3d 88df 3d3d 3f16 c6bd 6874 8d3c
00000080: 6413 18bd 3ee7 923d 565b f9bd 8e1f 87bd
00000090: 60b2 013d 0087 d03a c0f5 b73b 7651 ab3d
000000a0: ada3 093e af58 113e 4036 853d 656a 023e
000000b0: a404 53bd a470 3d3d db69 0cbe 546b 7d3d
000000c0: 0047 17bb 3204 12be 7059 12be c0aa 1f3c
000000d0: ce14 55bd 6006 97bd b09d ea3c c28e 53bd
000000e0: c0eb 7a3b 10ae 14bc d399 093e 5cff 3c3d
000000f0: 3d61 093e e095 f13b e5b0 083e f6e8 9dbd
00000100: e0ad 9bbb 8c65 543d 2021 8cbc 0056 c23a
00000110: c8ce a93c 998a 043e 7e2b ca3d 977b f7bd
00000120: 00f3 a53c 1c48 743d 8bee 113e d3be 1d3e
00000130: 1c39 6c3d ee54 e63d d2af ec3d e2eb 5ebd
00000140: 04b0 48bd 307a 5b3c e60a c83d 9831 803d
00000150: 3cb1 883d d8cd bf3c ba8f 5ebd 7e09 6fbd
00000160: 3247 ff3d 50b3 9cbc c44c 983d b4e0 1b3d
00000170: 560c fc3d 7255 f03d 8f6a 093e c00d 023d
00000180: d0f6 ed3c ba8a 05be e281 8f3d bc38 a03d
00000190: d0f1 ba3d 1e6b bc3d d2b8 d3bd 08dc 19bd
000001a0: 1aa9 d2bd f8c6 0c3d 3424 c33d 8a1f edbd
000001b0: 07bf 033e 78a3 febd be0f 42bd 8703 89bd
000001c0: 002c b0ba b09a 793c 847e 01bd f6dc c2bd
000001d0: cffc b0bd 7940 083e 00a4 8cb9 0f74 003e
000001e0: 3e77 25bd 4006 c33b 5428 943d c3c3 033e
000001f0: 5003 e3bc c6ea 13bd f081 b0bc 6cae 8dbd
00000200: b225 fc3d 45c6 dfbd 68a6 be3c fe83 c0bd
00000210: 7a03 f73d 39e2 0e3e 6bc9 13be f7ba 063e
00000220: f9b3 093e 40be ce3b aab4 9b3d 74ea 663d
00000230: b203 f23d 706c 733d b08a 7f3d 1892 8b3d
00000240: 80f6 993a 2c61 b33d 9098 09bd 3aba e23d
00000250: 83d5 183e 4857 e43c 6667 e83d 89a0 133e
00000260: baa8 c7bd be64 cbbd 1049 963d 6e0b f53d
00000270: b08c 38bc b473 4a3d 2024 b5bc a201 d53d
00000280: 6878 2abd 98aa 963d 008f 64bd 60f8 103c
00000290: 0059 a43c 8585 14be 553b 183e 82fe 95bd
000002a0: d0bb 42bc a027 92bc 0acc f23d 0881 e5bd
000002b0: c877 cebc 2bb7 1a3e e423 13be f486 febd
000002c0: 42ee f7bd 0fb3 19be a359 e1bd 2007 a83d
000002d0: 6cc4 41bd 20c1 91bc 607b 3cbc 1a5d d83d
000002e0: 3efb b5bd e422 54bd 6a49 66bd 9a7c 44bd
000002f0: 5b4c 143e 3421 c3bd 802d b4ba 9199 123e
00000300: 42ba af3d 009c 163a 94cd 16bd 5e49 dbbd
00000310: 82b7 c63d 148f 403d 30d2 ea3c 721a 02be
00000320: f0a1 893c 78a2 e13c fada ca3d ba9b 6cbd
00000330: 420d c8bd e661 15be 7f4f 0d3e c0e2 a13b
00000340: fc40 133d 00df 6a3b fd6f 113e 60c5 303d
00000350: 766c 03be 3f49 0e3e fac1 bd3d a628 a33d
00000360: f054 683c 3356 11be f256 2bbd e6ea 51bd
00000370: bca7 3b3d 9adc ce3d 0e4b 5bbd 58aa c5bc
00000380: 2ca8 0abe 3eab 963d d863 693d 8e6c 0abe
00000390: e214 c13d 051c 0d3e c57f 173e f080 78bd
000003a0: 5002 00bd a009 c23d 8a19 fb3d 5ed8 06be
000003b0: f40f 14be a005 a53d 1016 20bc 9e2c bdbd
000003c0: f2bf d4bd 0273 a53d 2b02 13be 5156 07be
000003d0: 384e 7f3d f2b3 d8bd 4844 bcbc db95 18be
000003e0: a030 f73c 00bb 33bc ef6f d8bd 30f1 523c
000003f0: 667b 883d 30e3 10bc 4813 d03c 960e 89bd
0.14272077 0.009388238 -0.06672241 0.117262736 0.0068254024 0.07678354 -0.117569976 -0.073938034
-0.031150468 -0.10281088 -0.06068092 0.12399872 0.11567576 -0.059537485 0.049880743 0.11335541
0.14962967 0.06899311 -0.11679765 0.02375561 -0.016728431 -0.095146194 -0.09875503 0.119734064
0.0777943 -0.091931164 -0.13789953 -0.10709931 0.070304826 0.046355754 -0.09672212 0.01726742
-0.037127867 0.07173012 -0.12175624 -0.065978155 0.031664252 0.0015909374 0.0056140125 0.08365147
0.13441344 0.14193986 0.06504488 0.12735899 -0.051518098 0.04625 -0.13712256 0.061869934
-0.002308309 -0.14259413 -0.1429193 0.0097453 -0.052021794 -0.07374263 0.028639644 -0.051649816
0.003828749 -0.009074703 0.13437586 0.046141967 0.13416 0.007372603 0.1334873 -0.077104494
-0.004750952 0.051854655 -0.017105639 0.0014826655 0.020728484 0.12943496 0.09871577 -0.1208412
0.020257473 0.05963908 0.14251153 0.15404825 0.05767165 0.11246668 0.115569726 -0.054424174
-0.048995987 0.013395831 0.09767704 0.06259459 0.0667443 0.023413584 -0.054336287 -0.05835866
0.12464751 -0.019128472 0.07436517 0.03805609 0.123070404 0.117350474 0.13419555 0.031751394
0.029048353 -0.13041201 0.07007195 0.07823321 0.09128153 0.092001185 -0.10337986 -0.037563354
-0.1028616 0.03436944 0.095283896 -0.11578281 0.1286584 -0.12433523 -0.047378294 -0.06690126
-0.0013440847 0.015234634 -0.031614795 -0.09514801 -0.086419694 0.13305844 -0.0002682507 0.12544273
-0.04039692 0.005951673 0.072342545 0.12867646 -0.02771154 -0.03611257 -0.021546334 -0.06918034
0.12311877 -0.10926489 0.023272708 -0.094001755 0.1206121 0.13953485 -0.14432304 0.13157259
0.1344756 0.0063093007 0.07602818 0.056375936 0.11817111 0.059429586 0.062388122 0.068149745
0.0011746436 0.087587684 -0.03359276 0.11070676 0.14925198 0.02787365 0.11347847 0.14416708
-0.09748979 -0.099313244 0.07338154 0.11965071 -0.011264011 0.04942675 -0.022111952 0.10400702
-0.041618735 0.07356757 -0.055800438 0.00884828 0.02006197 -0.14504059 0.14866383 -0.07323934
-0.011885598 -0.01784116 0.118553236 -0.112062514 -0.0252036 0.15108936 -0.1436916 -0.12428084
-0.12105991 -0.15009712 -0.11003425 0.08204484 -0.047306463 -0.017792284 -0.011504024 0.10564633
-0.08885811 -0.051791087 -0.056222357 -0.04797039 0.14482252 -0.09527817 -0.001374647 0.14316393
0.08580448 0.0005745292 -0.03681715 -0.10707353 0.0970297 0.04701145 0.028664678 -0.127054
0.01680085 0.027543291 0.09905048 -0.0577657 -0.09768154 -0.14588127 0.13799857 0.004940361
0.035950646 0.0035838485 0.14202876 0.04315698 -0.12834343 0.13895129 0.09265514 0.079667374
0.014180407 -0.14193039 -0.041830964 -0.051249407 0.04581426 0.1010067 -0.053538375 -0.024129078
-0.13540715 0.073568806 0.056979984 -0.13517973 0.09427811 0.1378022 0.14794834 -0.06066984
-0.031252205 0.09474492 0.122607306 -0.13168475 -0.1445921 0.080577135 -0.009770885 -0.09237026
-0.10388173 0.080785766 -0.14356296 -0.13216521 0.062330455 -0.10581197 -0.022981778 -0.14900915
0.030174553 -0.010969877 -0.10568225 0.012874886 0.066641614 -0.008843228 0.025399819 -0.06692235
