app/net/net.pth (torch_old, 68192 bytes, 19 tensors)

fc1.weight f4 [42, 43]
000000 2a 84 1f be 1e c9 0b 3e f6 86 3b 3d 84 e8 57 bd
       -0.1557776 0.13650939 0.045783006 -0.05271198
000010 87 eb 43 3c 00 4d c8 bd 83 f4 37 bd 0f 62 2d 3e
       0.01195801 -0.097803116 -0.04491092 0.16931938
000020 ba ec 1d 3d fb b9 95 3d cc 89 81 bd aa a2 a4 bc
       0.03855584 0.073108636 -0.06325111 -0.020097096
000030 4d f2 30 bd fb 69 a7 3c d9 bb 37 3e 30 46 24 bd
       -0.043199826 0.020436278 0.17942752 -0.040106
000040 b8 d8 03 bc 85 48 26 3e 5e 7a 4a 3d 41 22 88 3d
       -0.008047275 0.16238602 0.049433105 0.066471584
000050 06 a6 c2 3d 93 27 b7 3d 91 8e b5 3c 40 e2 89 bc
       0.09504323 0.08943095 0.022162708 -0.016831517
000060 31 a0 07 be 44 d2 65 bd da 5a 3e 3d 6e 3e f3 bc
       -0.13244702 -0.056108728 0.04647336 -0.029692855
000070 d1 b8 d9 3d 84 a4 0f be e4 d7 05 3e 4e 6c ed bd
       0.10630954 -0.14027601 0.13070637 -0.11592923
000080 c0 1c cb 3d 06 ba ee 3d 17 05 6b bd 9b be e2 bd
       0.09917593 0.11656575 -0.0573779 -0.11071511
000090 82 1e 4c bd bc 23 07 3d dd e7 94 bd f8 10 7a bd
       -0.049833782 0.032993063 -0.07270787 -0.06105134
0000a0 fa 4b 40 3d 1d da 68 bd 95 61 b0 bd 43 6f 0a be
       0.046947457 -0.056848634 -0.08612362 -0.13519005
0000b0 b6 19 e6 bd 5f de 57 be c7 59 a3 3d c5 fa fb bd
       -0.11235373 -0.21080922 0.07976108 -0.1230369
0000c0 36 d8 43 be ec 0a 50 bd 51 05 13 3e b4 b9 d2 3d
       -0.19125447 -0.050791666 0.14357497 0.10289326
0000d0 6d c4 0f 3d d1 40 81 bc 6d 2a 1d bd fa 6c c5 bb
       0.035099436 -0.015777977 -0.03837054 -0.006024954
0000e0 26 ec 10 3e 4e 05 b2 3d a4 3c 92 3d 38 9b 99 bd
       0.14152583 0.08692418 0.071404725 -0.07500309
0000f0 44 24 01 be 8e e0 b0 3b 95 89 e6 3d 65 91 d8 bd
       -0.1261149 0.0053978628 0.112567104 -0.10574607
000100 36 5b 7d 3d 66 c3 f0 3d fa 94 e4 bd 0c bc e2 bd
       0.061854564 0.11756019 -0.111612275 -0.11071023
000110 42 c7 f1 3d 9d a4 d5 3c 16 29 f7 3c ca 6f 05 3e
       0.118055835 0.02607947 0.030170958 0.13030925
000120 3b 1a 85 bd 69 77 c2 3d 69 34 12 bd db cc 14 3e
       -0.06499144 0.09495432 -0.035694513 0.14531271
000130 a0 f5 8e 3c 41 b1 9c 3b 8e ad 4d bd 69 02 ae 3d
       0.017451108 0.0047818725 -0.050214343 0.084965535
000140 b5 ea 98 3c 5e 6b 09 3e 5d da 48 bc 27 49 60 3d
       0.018666605 0.13419864 -0.012259093 0.054757264
000150 fa 39 de bd b4 c0 eb bb a6 36 59 bd 88 c8 c2 bd
       -0.10850902 -0.007194603 -0.053030632 -0.095109046
000160 0c 0e bd bc cc 90 ef 3d 6d aa e9 bd ca 95 7b 3d
       -0.023077987 0.1169754 -0.11409459 0.061422147
000170 7a df 91 bd d8 9c 8f 3c 14 3b 60 bc ba 49 13 be
       -0.07122703 0.017530844 -0.01368596 -0.14383593
000180 78 0a fe 3d 5e 4d db bd a2 4b 7d bd a5 45 98 3d
       0.124043405 -0.10708116 -0.061839707 0.07435159
000190 33 33 bd 3c 24 d5 e6 3d f7 81 e8 3d b3 b6 4d bd
       0.023095703 0.11271122 0.11352914 -0.050223064
0001a0 a0 4e d6 3d ef 4f 6c bd 00 f3 60 bb 32 98 d2 3d
       0.10464215 -0.057693418 -0.0034324527 0.10282935
0001b0 e2 2e ef bd 95 1a 95 bd 6d 2f a2 3d b2 bc e6 3d
       -0.11678864 -0.07280461 0.07919202 0.112664595
0001c0 d1 99 23 3b 34 7e 50 bd 9a 7b 35 3d 48 9f 0e bd
       0.0024963508 -0.050901607 0.04430733 -0.03481987
0001d0 05 40 02 3e 56 4d 79 bd 5b ca 87 bd 6c d4 65 3d
       0.12719734 -0.06086477 -0.06630393 0.056110784
0001e0 ee 8c 9a 3d 70 04 fc 3d 04 66 5c bd f2 69 15 3d
       0.075464115 0.12305534 -0.053808227 0.03647799
0001f0 f8 90 de 3d 7d 52 a2 bc 58 84 0e bd ec 5d df bd
       0.10867494 -0.019814724 -0.03479418 -0.10906586
000200 50 5e 81 3d d5 c1 1c be ae f8 d1 3d b1 5e 08 be
       0.06316817 -0.15308316 0.1025251 -0.13317372
000210 5b a1 20 3d 40 a1 03 bb 28 47 3d bd 1a aa d4 bd
       0.03921638 -0.0020085126 -0.046210438 -0.10384007
000220 c4 dc b7 bd 4f b9 35 3e 89 5b 79 bb 00 44 68 bd
       -0.089776546 0.17746471 -0.0038048944 -0.056705475
000230 8b bf d7 3d aa 3a 97 3c a2 01 87 3c 68 ff 21 3e
       0.10534581 0.01846059 0.01648027 0.15820086
000240 38 22 6b 3d 36 4a 11 bd 6a c9 7b bd 82 b9 aa 3d
       0.05740568 -0.035471164 -0.06147138 0.08336164
000250 e2 00 30 3e de 21 1d bc 16 9c 5a bd 63 ae 1a 3d
       0.17187837 -0.009590594 -0.05337151 0.037763964
000260 32 8a dc 3d e7 60 42 bd 03 2b fd 3d b7 6c c5 bd
       0.10768546 -0.047455695 0.123617195 -0.09639876
000270 5c bf c4 3d a0 63 1e 3e 0b 7a 32 bd bd e5 21 3e
       0.096068114 0.15467691 -0.04357342 0.15810294
000280 e6 ca c8 bd f7 1c 93 bd a9 ee 5d 3d da ab e4 3c
       -0.09804325 -0.07183259 0.054182682 0.027913976
000290 02 a0 d4 3d fb c0 a6 3d e2 fb f7 3d 82 ef b1 bc
       0.103820816 0.08142277 0.1210859 -0.021720652
0002a0 c1 a9 2a bd 60 ba ce bd 71 18 f9 3d 30 dc 09 3e
       -0.041665796 -0.10094142 0.12162865 0.13462901
0002b0 a7 77 ed bd e1 27 c8 3d 0b 94 0d be e9 ee b1 3d
       -0.115950875 0.09773231 -0.13826005 0.086881466
0002c0 7a 2e 21 be 86 f2 17 3c af 98 fc bd e6 0b a3 bd
       -0.15740386 0.009274131 -0.123338096 -0.07961254
0002d0 9d 82 e9 3b a2 84 03 3d 3e 57 16 be 56 c1 09 be
       0.007126166 0.03210891 -0.14681718 -0.13452658
0002e0 f9 5d c7 3d 4a 07 48 bd e2 ad 87 3a 9b ed af bd
       0.09734721 -0.048835076 0.0010351504 -0.085902415
0002f0 08 e7 14 3d c2 4c 2a 3d 8d d7 1d be d0 8b f6 3d
       0.03635314 0.04157711 -0.15414257 0.12038386
000300 24 17 1d be 49 1f dd 3c 54 5e df bc 57 da 0a 3e
       -0.15340859 0.026992457 -0.027266659 0.13559853
000310 ce e8 05 be ef 6e da bd 80 0c fc 3d f5 28 28 3d
       -0.13077089 -0.1066569 0.12307072 0.041054685
000320 1f e4 ff 3c 2a b0 8a 3d 01 5a b4 bb ba 98 f2 bd
       0.031236706 0.06771882 -0.0055038934 -0.118455365
000330 3b fe bb bd 35 f2 70 3a da c4 a2 bd 25 b9 d0 bd
       -0.0917935 0.0009191365 -0.07947703 -0.101915635
000340 1c ea 39 bd 92 ba 0f be 92 f4 f2 3c 8a a9 28 3e
       -0.04538928 -0.14036015 0.029657636 0.16470924
000350 5d 53 f8 bd db 1a f1 bc 26 7e 01 3c 62 67 2f 3c
       -0.12125275 -0.029431751 0.007903611 0.010705801
000360 b1 3b 6f 3d db e5 f0 bd 7f bd c8 3d df a1 2b be
       0.058406536 -0.117625915 0.098017685 -0.16760968
000370 50 d7 a6 3d 09 1b a2 bd ba fa b5 3d 0f 69 17 3e
       0.08146536 -0.07915313 0.08885713 0.1478617
000380 d7 ea 40 3e 7e ce 16 3e ee 73 b9 bd b3 e2 52 bd
       0.18839584 0.14727208 -0.09055315 -0.05148573
000390 21 09 b3 bc ce bf 3d 3c 0b d3 68 3d 96 59 a2 bd
       -0.021854939 0.011581374 0.05684189 -0.079272434
0003a0 cc d0 0f 3e 37 da 42 bd 3e e8 dc 3d c3 b0 bd 3d
       0.14044493 -0.047571387 0.10786484 0.0926223
0003b0 d2 8f a7 bd 8e 96 6f 3c 51 c4 f6 3c 1a 2e 96 bc
       -0.081817284 0.014623297 0.030122908 -0.01833253
0003c0 64 7e a0 bd 6b 2d 7f 3d ba f9 07 3d cc 60 1b bd
       -0.07836607 0.062299173 0.033197142 -0.03793411
0003d0 da 1e ae ba e6 0c de bd 26 74 10 3e d6 6e 07 bd
       -0.0013284341 -0.10842304 0.14106807 -0.033064686
0003e0 56 d2 a6 3d 5d 0e 0b 3e c0 b3 69 ba 8f e8 0e 3e
       0.08145587 0.13579698 -0.00089150295 0.13955902
0003f0 9f 1e 00 be a3 ee d5 3d 82 98 e3 3c 28 1b b2 bc
       -0.12511681 0.10445907 0.027782682 -0.021741465

fc1.bias f4 [42]
000000 1a 74 06 3e 3b 81 1c 3e e3 b8 8c bd 53 47 fb 3d
       0.13130227 0.15283673 -0.06871202 0.122694634
000010 78 d9 07 3e 88 d2 2e 3e 05 de 41 3e 1e b8 23 3e
       0.13266551 0.17072499 0.1893235 0.15988204
000020 c6 1d 6a 3c 2f 39 8e 3d 5a a2 d3 ba 0b 60 14 3e
       0.014289325 0.06944501 -0.0016146407 0.14489762
000030 0f fb 8b bc 3d ff 88 bd 78 dd b3 3d a5 9d ca 3d
       -0.017087488 -0.06689308 0.08782476 0.098933496
000040 95 0a 2a bd c8 98 ea bd d1 6d 85 3d 07 29 98 3d
       -0.041513998 -0.11454922 0.065150864 0.074297
000050 8d 39 1d 3d bb ee 32 3e 35 47 45 3e c5 08 ed bd
       0.038384963 0.17473881 0.19265445 -0.11573938
000060 51 c3 d0 bc 04 47 6a bd bc 84 f6 bd f0 6f 90 3d
       -0.02548376 -0.057196632 -0.12037036 0.070526004
000070 20 92 c9 bd fb d8 b5 bd 18 03 8e 3d a2 08 2d 3e
       -0.09842324 -0.08879276 0.06934184 0.16897824
000080 d3 4e 46 3e a6 31 d9 bc b5 5f d1 3d fd 02 29 3e
       0.19366007 -0.026512932 0.10223333 0.16505046
000090 f3 14 09 bd be c7 36 3e c2 c6 fc 3d 7e 83 0c be
       -0.033467244 0.17849633 0.123425975 -0.13722035
0000a0 51 18 60 bc 3b 43 27 3e
       -0.0136776725 0.1633424

fc2.weight f4 [42, 42]
000000 d6 8c 40 3d f6 ad e0 bd 1c 17 3a bd 45 4e 31 3d
       0.04700931 -0.109706804 -0.045432195 0.043287534
000010 d7 4b cb bd 97 e1 d9 3d b4 d6 7f bc e1 cb eb 3d
       -0.09926575 0.10638731 -0.015615154 0.11513496
000020 a6 e2 8a 3c 13 73 cb 3d 60 ac 11 bd 69 8b f8 3c
       0.016953778 0.09934058 -0.03556478 0.030339913
000030 7d 6e 14 bb bd 47 8b bd ed ee b3 bd 0f 58 04 be
       -0.0022648864 -0.06800792 -0.08785806 -0.12924217
000040 52 cc a3 bd 77 6a a8 3d 8e b4 82 bb ae 73 ee 3c
       -0.079979554 0.082234316 -0.003988809 0.029107895
000050 4f 0c 15 be 07 90 56 bc 2b 4b e0 bd e0 7a 17 3b
       -0.14555477 -0.013095862 -0.10951837 0.002311401
000060 f5 2b d1 bd 52 01 8f 3d 42 0d 30 3d d3 bb c7 3d
       -0.10213462 0.06982674 0.042981394 0.097526215
000070 04 7c 01 3e 47 58 01 bc 02 58 2f be 9d 61 ce bd
       0.12644964 -0.007894582 -0.17123416 -0.10077212
000080 af 23 9c bd 33 cd 17 be 8b 54 52 3d 66 b6 a7 bd
       -0.076239936 -0.14824371 0.051350158 -0.081890866
000090 64 74 04 be fe 65 26 be 62 3f e0 bd f4 1c dc 3c
       -0.12935024 -0.16249844 -0.10949589 0.026869275
0000a0 fd 19 2f be e9 f4 0a 3e 6f 11 53 3b 21 05 10 bd
       -0.17099757 0.13569988 0.0032206436 -0.03516114
0000b0 4f 9e 32 bd e1 26 db bc ed 07 18 3e 24 e6 2d bc
       -0.043608006 -0.026751937 0.14846773 -0.010613952
0000c0 4f f4 67 bd f2 af fd 3d 83 70 3b bd cd dd f6 bd
       -0.056629475 0.123870745 -0.045761596 -0.12054024
0000d0 1a 94 e3 3d 50 f3 ba bc d0 cf ee 3d 38 00 17 3e
       0.111122325 -0.022821099 0.11660731 0.14746177
0000e0 96 ab e5 3d 6a 57 58 3e 7d a9 d7 3d bc f8 8d 3d
       0.11214368 0.21127096 0.10530374 0.06932208
0000f0 ee 15 31 3e fa dc 3a 3e 61 0e d2 3d ff 5c ac 3c
       0.17293522 0.18248358 0.10256649 0.021040438
000100 18 d4 06 3e 19 6d 40 3c 24 8d 35 bd 2b 4d 89 3d
       0.13166845 0.011744761 -0.044324055 0.06704172
000110 fe 6d 96 3d 01 4c 08 3e 7f d9 2e 3d 2d 34 1b 3d
       0.07345198 0.13310243 0.04268789 0.037891556
000120 14 d9 36 3e 9a 05 0f 3e 00 29 cc 3d 5b e9 0d 3e
       0.17856246 0.1396698 0.09968758 0.1385855
000130 8c 99 e9 bd 6c d8 25 3e 80 bd d5 3d b7 40 17 3e
       -0.1140624 0.1619584 0.10436535 0.1477078
000140 75 57 ab 3d a4 80 00 be c6 fc b0 3c ab 73 4d bd
       0.083662905 -0.12549073 0.021604907 -0.050159138
000150 57 14 9d bd 86 83 e1 3c f6 b0 53 bd fb 8b b0 3d
       -0.07669895 0.027528536 -0.051682435 0.08620449
000160 4d 62 97 bd 7e 43 cf 3d 0b 23 17 bc 2b 6b 08 3e
       -0.07391796 0.10120295 -0.0092246635 0.13322131
000170 a6 dc 04 3b db 8b a5 bd 23 ce c8 3d 41 f0 f2 3d
       0.0020273118 -0.08083316 0.098049425 0.11862231
000180 af fa 11 3e 12 29 bb bd 10 9d b1 bd 35 b9 48 3e
       0.14255784 -0.09138693 -0.086725354 0.19601901
000190 59 3e ea 3c b6 aa fa bd d0 32 10 3e 54 02 12 bd
       0.028594183 -0.12239592 0.14081883 -0.03564675
0001a0 18 2d 89 bd 75 bb 0e 3e b8 e8 7b 3d 09 47 3b 3e
       -0.06698054 0.13938697 0.061501235 0.18288817
0001b0 4e c6 0d bd d2 82 c1 3d 4c 59 10 bd 86 ea b5 3c
       -0.034612946 0.0944878 -0.03524141 0.022206556
0001c0 96 16 18 3e 00 c4 8e bd 04 91 11 3e bf f6 20 3d
       0.14852366 -0.06970978 0.14215475 0.039297815
0001d0 5e c3 24 bd da 4d ad bd 37 33 e9 bd 7d 68 5c 3d
       -0.04022538 -0.08462115 -0.113867216 0.053810585
0001e0 4a 0c f8 3d 6e 9b 12 3e 4a 11 bc 3d 37 c1 b4 bd
       0.12111719 0.14317104 0.09182985 -0.08825915
0001f0 6c db d4 3d ce e2 ef 3d a5 6a 0d 3e d6 03 ce 3d
       0.10393414 0.117131814 0.13810213 0.100593254
000200 35 ed 8c bd 82 0e 86 3d 14 a0 a2 bd df 7b d6 3d
       -0.06881181 0.06545736 -0.07940689 0.10472845
000210 74 1a fb bb 37 ea 5c 3c ce f4 d4 3d d5 f9 15 be
       -0.0076630656 0.013483576 0.10398255 -0.14646085
000220 61 61 ac 3c 38 4a 1b 3d 3a ac 86 3d cd 54 97 bd
       0.021042528 0.037912577 0.06575818 -0.07389221
000230 6b b2 14 3e cc 86 d8 3d 35 10 b2 3d 2c f5 22 3e
       0.14521186 0.105725855 0.086944975 0.15913838
000240 26 cf 1d bd 1f f3 85 38 c3 24 ff bc 3d 04 82 3d
       -0.03852763 6.387219e-05 -0.031145459 0.06348465
000250 16 a8 ed 3c 5e 1f 27 3c bf 38 1d bd 14 81 a7 bd
       0.029010814 0.01020035 -0.038384195 -0.081789166
000260 a8 f8 1f 3d a4 29 90 bc cc f4 87 bd d4 76 6b bd
       0.039055496 -0.01759798 -0.06638488 -0.05748637
000270 bb df 0c bd 53 9c dc bb 5e 7a cb bd f6 bd e5 bd
       -0.034393054 -0.0067325025 -0.09935449 -0.11217873
000280 43 86 02 3e 44 da 7b bc 23 ec 11 3d 33 20 48 3e
       0.1274653 -0.015371863 0.03562559 0.19543533
000290 5a 06 82 3d e3 89 a9 3d b8 f4 8a bd ef f6 b8 b9
       0.06348868 0.08278253 -0.06784958 -0.00035279195
0002a0 50 58 74 bc c2 3d 0a be 48 80 3b 3d 63 86 f1 bd
       -0.0149136335 -0.13500121 0.045776635 -0.1179321
0002b0 e8 77 af 3d 22 8f 61 bd 94 ff dc bd 40 99 10 be
       0.08567792 -0.055068143 -0.10790935 -0.1412096
0002c0 6e 92 16 be a2 f1 d2 bd d0 41 8f bc 62 ed 93 3d
       -0.14704296 -0.10299994 -0.017487437 0.072230116
0002d0 5a a4 27 bd d9 a4 15 3e e7 c6 06 be f1 78 04 be
       -0.040928222 0.14613666 -0.13161813 -0.1293676
0002e0 c4 56 1c be c0 a9 d6 3c ed 56 1c be 8c 3f 31 bd
       -0.15267473 0.02620399 -0.15267535 -0.043273494
0002f0 44 99 8a 3d df 07 1d 3e 4c c5 bc bd c4 de de bd
       0.06767514 0.15335034 -0.09217319 -0.10882333
000300 a4 10 ad 3d 75 59 b2 bd 48 1b 86 3d b9 97 ff bd
       0.084504396 -0.08708469 0.06548172 -0.12480111
000310 e2 4b d6 3d d0 a5 be bc 74 cc 7a 3d b9 98 13 3e
       0.10463692 -0.023272425 0.061230138 0.14413728
000320 a2 f9 f8 bd 91 b2 ab bd 22 55 ae bd 9c 51 f5 bd
       -0.12156989 -0.08383668 -0.085123315 -0.119784564
000330 ce 9a bd bd 8e 08 b4 3d de 05 f9 3d 58 fe 78 3d
       -0.09258042 0.08790694 0.12159322 0.060789436
000340 06 8c 0d bd 86 c0 17 be fc 75 e7 3d 29 f1 58 bc
       -0.034557365 -0.14819536 0.113018006 -0.013241091
000350 d4 f0 0b 3d d9 01 9a 3d 42 c5 88 3c cd d6 0d 3e
       0.03416522 0.07519884 0.016695622 0.13851471
000360 70 37 f1 3d 16 b0 5b 3e 02 f0 04 3e 3d 57 13 be
       0.11778152 0.2145389 0.1298218 -0.14388748
000370 5c d6 e5 bd f0 7f e3 3d 76 2f 79 3d 23 40 95 bd
       -0.112225264 0.111083865 0.060836278 -0.07287624
000380 a5 6c 16 3d c4 41 2f 3e fb 70 2a 3e b0 7d 81 bc
       0.036724705 0.17114931 0.16644661 -0.015807003
000390 85 ff 91 3d 9d d9 37 3e d7 ad f6 3d e0 da 27 3e
       0.071288146 0.17954107 0.12044876 0.16392088
0003a0 6d 26 14 3e d8 68 2f 3e f8 f1 f0 bd 16 9a b0 3d
       0.14467783 0.17129838 -0.11764902 0.086231396
0003b0 85 36 ae bd ff 3e 01 3e d9 8a b7 3d 5a 8f 29 3e
       -0.085064925 0.12621687 0.0896203 0.1655859
0003c0 48 ea 3e bd 6b 1a 1c 3e 1c 34 da 3d 5e 84 8f 3d
       -0.046610147 0.15244453 0.1065447 0.07007669
0003d0 89 c8 0f bd e7 12 31 3e 0e c3 a5 bd 83 d2 16 3d
       -0.035103355 0.17292367 -0.08093844 0.036821853
0003e0 5e f2 19 3e 7c 80 ec 3d 1a 2c 0f 3e 3c 5a 64 3d
       0.15033862 0.11547944 0.13981667 0.055750117
0003f0 98 b6 4c bd 2c e1 c0 3d b6 46 f9 bd f6 16 c2 3a
       -0.049978822 0.09417948 -0.1217169 0.0014807868

fc2.bias f4 [42]
000000 6e 41 0e 3e df a6 16 3e 37 97 2c 3e a5 7d b2 3d
       0.13892147 0.14712094 0.16854559 0.08715371
000010 ee 1b 85 bd 2d 7d bc 3d 27 65 94 bc d6 c9 d0 3d
       -0.06499468 0.09203563 -0.01811464 0.10194747
000020 75 5d 8d bc ca c3 ac bd d2 3d b4 3c 2c fb 17 be
       -0.017256478 -0.08435781 0.022002134 -0.14841908
000030 6c 46 1e 3e 84 a3 bf bd 68 d9 11 3e 1a 93 5f 3d
       0.15456551 -0.0935736 0.1424309 0.054583646
000040 bc a9 03 3d ce 59 d3 bd 5f 70 1d be 96 76 4f 3d
       0.032144293 -0.10319863 -0.15374897 0.0506502
000050 ce ed b9 3d 63 03 dc 3c 37 88 11 3d 5a c9 39 bd
       0.09078561 0.026857084 0.035530295 -0.04535804
000060 b9 ca ff 3d 06 1c 71 bd ff 46 88 3d 80 57 5e bd
       0.12489838 -0.058864616 0.066541664 -0.054282665
000070 60 45 04 be d3 92 f4 3d a8 ce 89 3b 53 22 41 bc
       -0.1291709 0.11942067 0.0042055435 -0.011787969
000080 43 b8 73 bd bf 1e 80 bd ad fa cd 3d 02 9a e7 3d
       -0.059501898 -0.06255864 0.10057578 0.113086715
000090 ad 3a 84 bd 88 e2 8d 3d 61 9b 01 3d 5f 96 02 3e
       -0.06456504 0.06927973 0.03164232 0.12752675
0000a0 b2 34 21 bd 00 31 e5 3c
       -0.039356895 0.027977467

fc3.weight f4 [42, 42]
000000 51 75 b1 3c 34 fa 7a bd 5d 24 c8 3b 8a 64 62 bd
       0.021662386 -0.06127377 0.0061078505 -0.055271663
000010 70 b0 5e bd b4 66 a4 3d 27 82 0b 3e dd 64 b7 3d
       -0.054367483 0.080274016 0.13623868 0.08954785
000020 6f e9 14 3e 29 11 95 bd c0 a6 16 3d 8b 28 9f bd
       0.14542173 -0.07278664 0.03678012 -0.07771405
000030 ea 95 32 3e af 7d 1b 3e 09 64 36 3e 67 bb b8 bd
       0.1744 0.15184663 0.17811598 -0.09020119
000040 c1 f8 44 bd 60 08 32 bc ad 2f c1 bc 85 c0 31 3e
       -0.048088793 -0.010866255 -0.023582304 0.17358597
000050 d9 04 31 3e 59 9a 31 bc c6 0f d5 3d 51 9b 3f 3d
       0.17287005 -0.010840022 0.10403399 0.04677898
000060 9c 20 3c 3e b9 fb 02 3e 00 d9 15 3e 00 51 7c ba
       0.18371814 0.12791337 0.1463356 -0.0009625107
000070 ce 21 89 3d 6f c8 91 3d 0d 1b 09 3e be 37 12 3e
       0.06695901 0.07118308 0.13389225 0.14279076
000080 ee f6 62 bd b0 ce 53 3d 08 01 8e 3d 14 a4 0c 3e
       -0.05541127 0.051710784 0.069337904 0.13734466
000090 db f8 48 bc 2e 28 67 3d 2c 09 fb 39 ea fe 10 3d
       -0.012266363 0.056434803 0.00047881284 0.035399355
0000a0 e8 b3 d6 bd 92 04 28 3e 05 91 73 3c 9c eb 7e bc
       -0.10483533 0.16407993 0.014866118 -0.015559103
0000b0 0a 7e a5 3d 34 00 1e be 76 9b b1 3d d1 ee 37 bb
       0.08080681 -0.15429765 0.0867223 -0.002806593
0000c0 d9 79 07 be d0 1d 8c 3d 34 f6 c4 3d e6 85 0d be
       -0.13230075 0.06841624 0.09617272 -0.1382061
0000d0 17 46 0a 3e 78 a6 9f 3d d3 35 61 3d 5e c7 99 bd
       0.135033 0.07795423 0.05498297 -0.075087294
0000e0 46 a7 07 3e b2 ac 9e 3d 1b bd fa bd cc 06 1b be
       0.13247404 0.07747783 -0.122431 -0.15139312
0000f0 60 d9 98 bd db 32 87 bd 15 40 8d 3d 55 60 b8 3d
       -0.07463336 -0.06601497 0.06896988 0.09002749
000100 21 be 5f bd d8 31 95 bd 7f f5 71 3d 16 dd cc bd
       -0.05462468 -0.072848976 0.059072014 -0.10003106
000110 a2 21 52 bc 7c d8 ba 3d a9 04 05 3e 96 b7 29 3d
       -0.0128254015 0.09123322 0.12990059 0.041434847
000120 be 4f c4 bd ec 66 00 be f8 7b 59 3d b0 18 82 3d
       -0.09585522 -0.12539262 0.05309674 0.06352365
000130 d8 64 21 bd a7 d6 eb 3d cb 0b b5 bd 71 8f f5 3c
       -0.039402813 0.11515551 -0.0884014 0.029975625
000140 fe c0 ae 3c 23 5a aa bd 94 de 63 bd fd ea da bd
       0.02133226 -0.083179735 -0.05563219 -0.10689352
000150 12 40 cd bd b4 99 83 bd c7 cf 81 bc 9e 4e 54 3d
       -0.10021986 -0.06425801 -0.015846146 0.051832788
000160 70 37 70 3d 1c 9f b2 3d d2 04 7b 3d 6c df 1a 3e
       0.05864662 0.08721754 0.061283894 0.15124291
000170 00 55 2e 3d b4 34 00 3d 52 55 92 bd 43 bd 01 be
       0.04256153 0.03130026 -0.0714518 -0.12669854
000180 5f b2 46 3d 35 6b c2 bd 2d 2c b0 3d 7b 03 bd bd
       0.04850995 -0.09493104 0.08602176 -0.092291795
000190 57 da 68 3d f1 73 39 3e 94 de 08 be a3 4c 71 3d
       0.05684885 0.18110634 -0.13366157 0.058910977
0001a0 83 38 69 bd 6c c2 d4 3d d7 cd 5a bd b3 84 1d bb
       -0.05693866 0.103886455 -0.05341896 -0.0024035394
0001b0 6a 8b 91 3d a8 51 3c bd 3e 39 12 bb d8 f3 94 3d
       0.07106669 -0.04597631 -0.002231195 0.07273072
0001c0 2a b0 a0 bd 00 9c bd bd 2f d5 09 be f1 4a e8 bd
       -0.07846101 -0.0925827 -0.1346023 -0.11342419
0001d0 df 37 2d 3d 51 13 a8 bd bf f0 67 3d 5f e4 3b 3d
       0.04228961 -0.08206809 0.056626078 0.04587209
0001e0 27 77 40 3e 58 e8 56 bc 39 89 28 3e 96 9f 13 bd
       0.18795453 -0.0131169185 0.16458596 -0.036040865
0001f0 34 59 af bd 9c 60 2c 3e 45 5d 43 bc 78 48 34 3d
       -0.08561936 0.16833729 -0.011924093 0.044014424
000200 7b 2c 13 b9 df c9 1f be 30 7b 2e 3c e3 4a 10 3d
       -0.00014035583 -0.15604351 0.010649487 0.035227668
000210 ca 95 c2 bd 19 77 76 bc dd 65 d0 3c a0 d0 68 bc
       -0.09501226 -0.0150430435 0.025439197 -0.014209896
000220 39 f6 f2 bd e6 ca a8 bd 83 35 05 be 9b 18 0c be
       -0.118633695 -0.08241825 -0.13008694 -0.13681261
000230 2d f1 de bc c2 c9 be 3d 49 75 0d bd 01 fe a8 bd
       -0.027214611 0.09315826 -0.03453568 -0.082515724
000240 20 98 90 3d ef 9f 11 3e a7 97 06 be a0 f1 09 3e
       0.070602655 0.14221166 -0.13143788 0.13471079
000250 af 68 6d bc 16 fb fc 3d d8 da e1 3d f0 42 06 3d
       -0.014490291 0.12352578 0.11028069 0.03277868
000260 7d 12 0c 3e 8a da b6 3d a0 5d 37 3d 27 55 da bb
       0.13678928 0.08928402 0.044767022 -0.006662983
000270 1c 4c 63 bd 38 08 e9 3d e5 a8 1d be a2 06 cb bc
       -0.055492505 0.11378521 -0.1539646 -0.024783436
000280 48 51 7d 3d 35 7b 0e bd 68 48 1a be 5e 09 50 bd
       0.061845094 -0.034785468 -0.15066683 -0.050790183
000290 b7 f4 1e be 99 8a 05 be 98 11 dc 3d 33 5e 4a 3d
       -0.15523039 -0.13041152 0.10745543 0.04940624
0002a0 3f 88 f4 3d 4e 2c e7 bd fe 9b 10 be 22 17 04 be
       0.119400494 -0.11287747 -0.14122006 -0.1289945
0002b0 be 70 a4 bd 27 58 18 3e ca 5c da 3d df 96 b1 bd
       -0.08029316 0.14877377 0.10662229 -0.086713545
0002c0 33 19 8b 3c 64 a6 a6 3d 32 07 0e be c7 f5 0a be
       0.01697979 0.08137205 -0.13869932 -0.13570319
0002d0 85 8b d7 bd 8b 9c 36 3d 40 a9 86 bc 81 0c 2a bd
       -0.10524658 0.044582885 -0.016438127 -0.04151583
0002e0 b0 27 0c 3e 89 e5 cf bd b8 3f ab bc b8 6e a7 3c
       0.13687015 -0.10151202 -0.020904407 0.020438537
0002f0 27 bd f7 3d 5a 89 e2 3d 9e 61 df bd 8d b7 a1 3d
       0.12096625 0.11061354 -0.10907291 0.07896338
000300 49 00 82 3d ee 30 0c be 93 33 1d be 6f e9 10 be
       0.06347711 -0.1369054 -0.15351705 -0.14151548
000310 00 d8 00 bd 30 ea 9a 3d 00 b7 64 bb ff 9b e0 bd
       -0.031455994 0.07564199 -0.0034899116 -0.10967254
000320 9f 8b 05 3e 06 4d 40 3d fb 34 fb 3b 08 2a d4 bd
       0.13041542 0.046948455 0.007666228 -0.10359579
000330 3a 00 90 bd 21 b5 cb bd e0 5d 40 bd 3a fb 11 be
       -0.07031293 -0.09946657 -0.046964526 -0.14255992
000340 41 7f eb 3d 97 9c c3 bd b8 6b 06 be 3a 07 bf bc
       0.11498881 -0.095513515 -0.13127029 -0.023318876
000350 6b 9f 09 3e 37 29 ed 3d 4a 9c c8 3d a9 f9 42 3e
       0.1343972 0.11580127 0.09795435 0.1904055
000360 d0 d8 f3 3d 0a bf fd bd 7f 61 e9 3c 2a b2 ef bd
       0.11906588 -0.123899534 0.028488873 -0.11703904
000370 fb bd 12 be 3d 44 13 3e 48 a5 d2 3c a6 cd 12 be
       -0.14330284 0.143815 0.025713578 -0.14336261
000380 7c a3 78 bd 81 ec 4e 3c 0d 97 15 3e 0c d5 09 3e
       -0.060702786 0.012629629 0.14608403 0.13460177
000390 e7 df 70 3d a9 88 f6 3d 0d e2 7a 3d ac a6 6d bc
       0.05880728 0.120377846 0.061250735 -0.01450507
0003a0 3e 9b 8c bd 8f ae 00 3e 81 1e 89 bd 70 73 39 3c
       -0.068655476 0.12566589 -0.06695271 0.011319026
0003b0 3c 5b b1 bc 60 b9 71 3c 7a 34 b8 bd 85 51 c0 bd
       -0.02164995 0.0147536695 -0.08994384 -0.093905486
0003c0 1d 1f 89 3c 01 fa f4 3d b8 72 a5 bd fe 30 0d 3e
       0.016738469 0.11961747 -0.080785215 0.1378822
0003d0 ea c6 b1 bd 8f 26 e0 3d 53 db 00 3e c0 2c 09 be
       -0.08680518 0.109448545 0.12583666 -0.13395977
0003e0 a6 5a d5 3d c2 b4 21 3e 04 43 f2 bb ba af 3c 3c
       0.104176804 0.1579161 -0.007393243 0.011516506
0003f0 92 65 ac bd 1f 00 27 3e 00 fb dc bc 26 de 77 3b
       -0.084178105 0.1630864 -0.026975155 0.003782162

fc3.bias f4 [42]
000000 d9 5e a4 bc 71 2d 0b be fe 07 03 3e 62 6a 0a 3c
       -0.020064758 -0.13591553 0.12796018 0.008448215
000010 f8 76 c9 bc d3 57 14 3e fc c6 8c 3d 7f 36 f5 3d
       -0.024592862 0.14486627 0.06873891 0.11973285
000020 1c 91 e3 bd f0 3b 7d bd 9a d5 8f bd 87 5a 12 3e
       -0.11111662 -0.06182474 -0.07023163 0.14292346
000030 c3 41 c8 bd 5c b1 5a bd 55 bb be bd 9e 30 04 be
       -0.09778168 -0.0533918 -0.093130745 -0.12909171
000040 cf 96 f5 bd 51 6c 91 3d e8 99 0f bd be 12 f9 3d
       -0.11991655 0.07100738 -0.035058886 0.12161778
000050 a6 7e 78 3c 32 59 72 bd 68 a6 01 be 13 04 f9 bd
       0.015166914 -0.059167095 -0.12661135 -0.1215898
000060 80 2f c2 bd 8d 4c ed bc 7f 39 30 be 6b cd a5 3d
       -0.09481716 -0.028967166 -0.17209433 0.08095821
000070 74 ee a3 bd 3b 55 8b bd ff e9 df bc 33 a4 ed 3d
       -0.08004466 -0.06803366 -0.027333258 0.11603584
000080 54 37 07 be 54 9c 2c be 2f 8a 3b 3d 07 76 74 bd
       -0.132047 -0.1685651 0.04578608 -0.059682872
000090 60 36 06 3e 04 6d f4 3d 0f 46 85 bd e3 64 09 be
       0.1310668 0.119348556 -0.06507503 -0.13417391
0000a0 a1 9f 15 be 3a c0 fd 3d
       -0.14611675 0.1239018

fc4.weight f4 [42, 42]
000000 d6 53 2b 3d c7 67 ee bc 3c 30 ce bd 45 d1 91 bd
       0.041828 -0.02910222 -0.10067794 -0.07119993
000010 e8 fd cc 3d 74 56 ce 3d e8 5e af 3d fa f4 10 3d
       0.10009366 0.100750834 0.08563024 0.035389878
000020 a8 ab d4 bc 7d 23 b4 3d 36 1a 7f bd dd 97 2c 3e
       -0.025960758 0.08795831 -0.062280856 0.16854806
000030 90 a3 16 3e 7e e0 0b 3e 3a a3 5a 3d 59 8f 01 be
       0.14710832 0.13659856 0.05337832 -0.12652339
000040 b9 fe 11 3e f2 fe 47 bd 01 29 4a 3d 57 93 09 3b
       0.14257325 -0.04882712 0.04935551 0.0020992362
000050 c5 58 52 3e fe 25 f6 bd f0 33 c7 bd fb 92 bc 3c
       0.20541675 -0.12018965 -0.09726703 0.023019304
000060 90 f0 72 bd 20 75 1b bd 4e fc b7 3d 1c 8b d3 3d
       -0.05931145 -0.037953496 0.0898367 0.103292674
000070 ac c3 04 be 7b 20 00 3d 89 d0 c9 bd 96 b6 86 bd
       -0.12965268 0.031280976 -0.09854228 -0.06577794
000080 1c 00 34 3d d1 03 2f be 9c 59 9d bd fb 7f 45 3d
       0.043945417 -0.170913 -0.07683107 0.048217755
000090 3b 7a c4 3d 77 5e 4a 3d 9d c1 5e 3d f9 11 17 3d
       0.09593626 0.049406495 0.054383863 0.036882374
0000a0 5e 89 ff 3d c7 26 d6 3d 0b 73 f8 3d 06 cb 25 bb
       0.124773726 0.10456615 0.12131318 -0.0025298013
0000b0 0e e1 0c 3e 4a 14 86 3d 52 57 0e be cb a1 7c 3d
       0.13757727 0.065468386 -0.13900498 0.061677735
0000c0 ea ca bf bd 71 f9 56 3d 36 ca 8c 3d 68 ab 91 bb
       -0.09364875 0.05248398 0.06874506 -0.004445482
0000d0 90 fa ed 3c c8 99 4d bd 6a b2 a2 3d 4c 56 1c 3c
       0.029050142 -0.050195485 0.07944186 0.009542059
0000e0 93 b7 e3 bd 7e 0a f7 3d 9a a9 dc 3d 28 e2 e5 3c
       -0.111189984 0.12062548 0.107745364 0.028061941
0000f0 15 a6 ec bd d7 8a 63 3d dc 14 f3 bc 99 61 b0 bd
       -0.11555115 0.05555233 -0.029673032 -0.08612365
000100 88 dc 5e bd 0a 19 ab 3d 5f 63 e7 bd 56 00 7a bd
       -0.054409534 0.08354385 -0.112982504 -0.061035477
000110 46 56 cd bd 61 d8 9f 3c d8 b4 9f 3c 1e 7f 55 3d
       -0.10026221 0.019512357 0.019495413 0.05212318
000120 12 59 be bd 31 f7 de 3d d0 d1 d0 bc fc 13 8c 3c
       -0.092943326 0.10886992 -0.025490671 0.017099373
000130 36 20 b2 bd c5 6d db bc 7e 72 8b bd 4d 0b a5 bd
       -0.0869755 -0.02678574 -0.06808947 -0.08058796
000140 5f 8f 15 3d cf d3 aa bd f0 c9 f4 bd 8c bd 18 3e
       0.036513682 -0.083411805 -0.11952579 0.14916056
000150 59 11 0a 3e dc 5e 8e 3d 96 92 e7 bd 00 08 a4 b9
       0.1348318 0.06951687 -0.11307256 -0.00031286478
000160 e7 77 b4 bd 4c 5d 07 bd 90 76 b9 bd c8 ba b3 bd
       -0.08811932 -0.03304796 -0.09055817 -0.0877586
000170 17 e5 18 3e c5 bb c2 bd 2a 5f d1 3d 58 9a 1e bd
       0.14931141 -0.095084704 0.10223229 -0.038721412
000180 e0 9d 11 be f4 4d 0b bd 6d 3d 03 be db 8e 06 be
       -0.14220381 -0.03400989 -0.12816401 -0.13140433
000190 cc 21 4c 3d a1 91 18 3e e1 47 c9 bd 82 e8 84 bd
       0.04983692 0.14899303 -0.09828163 -0.0648966
0001a0 3d 42 19 3e 38 00 69 bd 56 f6 e0 3d 4c 97 4e 3d
       0.14966674 -0.056884974 0.10984485 0.050437257
0001b0 12 2a a2 3d 75 1a fe bd 9c 36 76 3d 2e c3 16 be
       0.079181805 -0.1240739 0.060110673 -0.14722893
0001c0 ca cc c8 3d 0b 8c 0e 3e 6a 22 8a bd dc af 2d bd
       0.098046854 0.1392061 -0.06744845 -0.04240404
0001d0 7e 4f ff 3d b8 92 b5 3c f9 8c 0d 3e 94 48 07 be
       0.12466334 0.022164688 0.13823308 -0.1321128
0001e0 7a a3 0b be ad a6 b3 bd f2 e0 dc bd 10 40 ad 3c
       -0.1363658 -0.08772025 -0.107850924 0.021148711
0001f0 c8 2b e3 3c 36 36 84 3d f2 da 8d 3d 9d 39 13 3e
       0.027730837 0.064556524 0.06926526 0.14377446
000200 b0 d4 34 bd ea 7a d8 3d 30 ed c5 bc 10 32 ca 3c
       -0.044148147 0.10570319 -0.024160951 0.024682075
000210 6c 27 8d 3d f0 46 25 3d 8d ba e9 bd b7 ad 88 bd
       0.06892285 0.040350854 -0.11412535 -0.066737585
000220 18 89 a5 3d b0 b7 cd 3c f2 79 f4 3d 10 15 34 3d
       0.08082789 0.025112003 0.11937322 0.0439654
000230 a0 ac a1 bc 80 1f 5e 3b 2d 80 09 3e bd bb 00 3e
       -0.019735634 0.0033893287 0.13427801 0.12571616
000240 00 95 ae bc 3c 1d 00 3d 5f 07 12 3e 30 ec 48 3d
       -0.021311283 0.03127788 0.14260624 0.04905337
000250 98 5f 8a 3d 74 41 d8 bd 00 b5 d1 bc 7c 12 17 be
       0.06756514 -0.10559359 -0.025599003 -0.14753145
000260 f1 05 0a be 28 c7 90 3d 4a 1b c4 3d 54 0f 1f bd
       -0.13478829 0.07069236 0.095755175 -0.038832977
000270 1f 65 10 be f0 fa 08 3d 97 93 02 be bc 55 64 bd
       -0.14101075 0.033442438 -0.12751614 -0.055745825
000280 7e b8 d9 bd 2c 55 b4 bd 9e 0c 13 bd e8 e1 92 3d
       -0.10630892 -0.08805308 -0.035900705 0.071719944
000290 38 a0 90 bc 20 43 a6 3c e4 34 ef bd 94 c2 0b be
       -0.017654523 0.02029568 -0.1168001 -0.13648444
0002a0 10 98 1e 3c f4 8e fc bc 2e 90 30 bd 18 09 9e 3c
       0.009679809 -0.030829884 -0.04310625 0.019291446
0002b0 31 57 12 be 35 1d b4 bd 8c 45 36 3d 8a 38 74 bd
       -0.14291073 -0.08794633 0.04449992 -0.059624232
0002c0 53 40 b1 bd fa 32 30 bd f0 e5 48 3c ca 03 11 bd
       -0.08654847 -0.043017365 0.012261853 -0.035404004
0002d0 b2 97 0b bd 68 57 84 3d 40 a5 cb bb 68 b1 ed bd
       -0.034080215 0.06461984 -0.0062147677 -0.11606103
0002e0 09 a5 bd bd 02 d8 da 3d ac e4 20 3d 85 24 1c 3e
       -0.092599936 0.106857315 0.03928058 0.15248306
0002f0 e8 61 e6 bd 1e 6c 88 3d 04 a0 bf bd 39 6b 0b 3e
       -0.11249143 0.06661247 -0.093566924 0.13615121
000300 c2 6c 85 3d 74 b4 fd bd 4b a7 cc bd f8 f8 01 3d
       0.065148845 -0.12387934 -0.09992846 0.031731576
000310 ac df 63 3d 00 c9 dd 3b 5e 28 9a bd 50 80 a2 3c
       0.055633232 0.006768346 -0.07527231 0.019836575
000320 6c 62 43 3d d4 99 66 3d b8 0f 13 be 0e 60 ce 3d
       0.047701284 0.056299046 -0.14361465 0.10076915
000330 5e 65 92 3d a6 f0 9c 3d f0 e3 83 bd a8 08 a1 bc
       0.071482405 0.076630875 -0.0643996 -0.019657448
000340 d0 81 a0 3c ba bc 0e be a3 7a a0 bd de 5f d6 3d
       0.01959315 -0.13939181 -0.07835891 0.10467504
000350 80 b2 81 bd 67 ce 07 3e 07 9f bd bd 84 38 55 bd
       -0.06332874 0.1326233 -0.09258848 -0.05205585
000360 36 00 1b be 34 5a 02 3e 72 b6 e0 3d 4c 9e 60 bd
       -0.15136799 0.12729722 0.10972299 -0.054838464
000370 76 30 ca bd b4 c5 d2 bd b3 f5 be 3c 1a 46 bc 3d
       -0.098725244 -0.10291615 0.023310518 0.09193058
000380 7c af c6 3d 74 e0 3f 3d 76 30 63 bc 90 5a 05 3e
       0.0970144 0.046844915 -0.013866534 0.13022828
000390 79 48 c9 bd 14 69 0d 3d c3 58 f9 bd 90 50 40 3d
       -0.09828276 0.03452404 -0.12175133 0.04695183
0003a0 48 27 0b be 9c f1 0f 3d d6 cf bb bd 18 73 52 bd
       -0.13589203 0.035142526 -0.09170501 -0.051379293
0003b0 80 da 30 3d 2d 96 aa 3d a8 f3 bc bd 47 58 24 be
       0.043177128 0.08329425 -0.09226161 -0.160493
0003c0 02 68 11 3e f8 14 fe 3d 06 d2 bf 3d ba 9d 32 3d
       0.14199832 0.12406343 0.09366231 0.04360745
0003d0 48 50 07 be ed 38 14 be 4d 86 9d 3d 34 80 c5 bd
       -0.13214219 -0.1447484 0.076916315 -0.096435934
0003e0 94 5f 0d be 6c 5c 0b be b2 f3 e6 bd 74 af 89 3b
       -0.13805991 -0.13609475 -0.1127695 0.004201824
0003f0 14 07 41 bd 79 09 90 bd 3e 0f e4 bc 93 a9 40 bd
       -0.04712589 -0.07033057 -0.0278393 -0.04703672

fc4.bias f4 [42]
000000 ad 5e 26 3e b6 66 a8 bd b4 a2 cc bd c0 6c 7b bd
       0.16247053 -0.082227156 -0.09991971 -0.06138301
000010 b2 8f ce bd 32 31 54 3c 59 61 19 3e df d1 93 bd
       -0.100860015 0.012951182 0.14978541 -0.07217764
000020 06 c4 1a 3e 54 ec 1b be 27 b2 10 be 6a e6 c7 bc
       0.1511384 -0.15226871 -0.1413046 -0.024401862
000030 53 7b a4 3d 1a 38 f0 bd 52 ef 2b 3e bc 97 bc 3d
       0.08031335 -0.117294505 0.16790512 0.092086285
000040 95 68 9d 3c 8b e6 21 3e b8 8d 17 3e 27 3d 01 be
       0.019214908 0.15810601 0.14800155 -0.12620984
000050 11 e5 d7 3d a0 8b 2b bd 40 23 af bb 40 ca 24 3e
       0.10541738 -0.041881204 -0.0053447783 0.16092777
000060 e5 ff e6 bd 3d e4 a4 bd 1a a3 e6 bd 3c ff 2d 3e
       -0.11279277 -0.080513455 -0.11261578 0.16991895
000070 f8 f5 30 3d 42 86 f2 3d 06 cb ea bc 7a 96 36 3e
       0.043203324 0.11842014 -0.028661262 0.1783084
000080 78 eb dd bd ec 3a 60 3d ef 36 6e 3d ec 18 26 bd
       -0.10835928 0.054743692 0.058157858 -0.04055111
000090 4d 4f 04 3d b4 ca 62 bd 08 00 3f bd 94 d1 bf 3d
       0.03230219 -0.055369094 -0.04663089 0.09366146
0000a0 ec 52 a4 bd 9b b4 20 3e
       -0.080236286 0.15693896

fc5.weight f4 [42, 42]
000000 e0 36 b2 bb c0 46 e1 bb d0 b4 52 3c ae 33 91 3d
       -0.0054386705 -0.006874889 0.012860492 0.07089935
000010 3c 7e 5a bd 3b 1b 10 3e 30 93 0d bc 26 c3 ff bd
       -0.053343043 0.14072888 -0.008641049 -0.124883935
000020 d0 2e 49 bd 6d e7 04 3e 60 1d 8e 3b 08 e2 e5 3c
       -0.04911691 0.12978907 0.004336998 0.028061882
000030 87 10 02 be a6 df c8 3d 52 91 11 be d8 af aa 3d
       -0.12701617 0.098082826 -0.14215592 0.08334321
000040 ce a5 f7 3d 26 ce e1 bd a0 d3 09 3d 28 df 93 bd
       0.120921716 -0.11025648 0.033649087 -0.07220298
000050 86 70 fa bd c0 96 72 3b c4 71 60 3d 92 b8 e5 bd
       -0.122284934 0.0037016124 0.054795995 -0.112168446
000060 cf 55 c6 bd fe e9 c2 bd 23 5f 96 bd 48 1a 08 3d
       -0.096843354 -0.09517287 -0.07342365 0.03322819
000070 78 0c 8a bc b4 ab 14 be 1a a5 c6 3d 52 3a ae bd
       -0.016851649 -0.14518625 0.096994594 -0.085072175
000080 e0 25 f6 bd 1f b7 08 be 40 55 7a bb 20 a2 dd 3c
       -0.12018943 -0.13351105 -0.0038197786 0.027054846
000090 6a d0 60 bd 28 94 62 3d ca ed 1c be ac c1 29 bd
       -0.05488626 0.055317074 -0.15325084 -0.041444466
0000a0 e2 bb e1 3d 8f b9 18 be 50 ca 70 3c ff f0 f6 bd
       0.11022164 -0.14914535 0.014696673 -0.12057685
0000b0 a2 4a bf 3d 7b ac 00 3e db cd e2 bd aa 5b e2 3d
       0.09340407 0.12565796 -0.1107442 0.1105264
0000c0 00 c8 9d bb ae ed 10 be c9 65 11 be 2d c1 88 bd
       -0.0048151016 -0.14153168 -0.14198984 -0.0667747
0000d0 32 ed eb 3d d4 5e 46 3d ee 5d de 3d 30 d1 d7 bd
       0.11519851 0.04843028 0.108577594 -0.10537946
0000e0 68 36 fe bc f2 91 dd 3d 70 ff 27 3d 64 4e c1 bd
       -0.031031802 0.108188525 0.04101509 -0.0943878
0000f0 00 56 a9 39 70 34 52 3c 0c 69 b6 bd 89 91 a1 bd
       0.00032298267 0.012829885 -0.08906755 -0.07889087
000100 f0 b4 8e 3c 00 c8 82 39 70 3d 52 bd 76 77 8b 3d
       0.017420262 0.00024944544 -0.051328123 0.06809895
000110 f0 7f 03 be b0 96 9b 3c b0 1f 73 bd 9e 7a fa 3d
       -0.12841773 0.018992752 -0.05935639 0.122304186
000120 7b 2e 19 3e 8f b1 9d bd 72 44 d3 3d f3 c3 18 be
       0.14959137 -0.07699882 0.10315789 -0.14918499
000130 63 68 13 3e b6 1f f5 bd cd 5c 02 3e b8 ee 1b be
       0.14395289 -0.11968939 0.12730713 -0.15227783
000140 3c c8 74 bd a0 d2 e8 bd 04 37 88 3d 90 c8 b2 3c
       -0.05976127 -0.113682985 0.066511184 0.021824151
000150 09 4f 0d 3e 8a 33 4b bd 50 0e 38 bc 00 74 9d bd
       0.13799681 -0.0496097 -0.011233881 -0.07688141
000160 36 86 bc bd da fd b7 3d e3 95 96 bd 21 e8 0f be
       -0.09205286 0.08983965 -0.073528074 -0.14053394
000170 76 f8 95 3d d4 73 c0 3d 01 1e 04 be 18 17 49 3d
       0.07322781 0.093970925 -0.1290207 0.04909429
000180 4c a7 55 3d 51 14 c6 bd e0 7b 4a bc 80 0a be ba
       0.0521615 -0.09671844 -0.012358636 -0.0014498979
000190 d0 89 8e 3d 41 d6 da bd 66 e5 ef 3d d2 93 de 3d
       0.069598794 -0.10685397 0.11713676 0.10868038
0001a0 77 ed 14 be 2b 3a 1c 3e 74 0f eb bd 58 48 df bc
       -0.1454371 0.15256564 -0.11477557 -0.027256176
0001b0 a8 47 f7 bd cf 70 8a bd ec 0b af bd 80 01 22 bd
       -0.12074214 -0.06759798 -0.08547196 -0.03955221
0001c0 61 d8 0a 3e aa 6c c8 3d 27 12 09 3e aa 18 f5 3d
       0.13559105 0.09786351 0.13385831 0.11967595
0001d0 80 6d 87 ba 50 f5 8b bc b4 42 14 3d f3 0d 10 be
       -0.0010332316 -0.017084748 0.036196426 -0.14067821
0001e0 52 dc dc 3d c0 d8 38 3c 46 54 eb bd 16 0a b0 3d
       0.1078421 0.011282146 -0.11490683 0.08595674
0001f0 54 7a eb bd e0 39 ea bc b8 13 c5 3c 2c d5 23 3d
       -0.114979416 -0.02859205 0.024057254 0.03999822
000200 e1 e4 86 bd c6 2d d3 3d a1 60 ab bd bd 11 1b 3e
       -0.06586624 0.10311465 -0.0836804 0.15143485
000210 9a 8b ee 3d 90 87 5b bd 58 7a 83 3d 2a e6 d5 3d
       0.11647721 -0.05359608 0.064198196 0.10444291
000220 1a 7d b1 bd ed 9a ac bd f8 d4 87 3c b6 62 e8 3d
       -0.08666439 -0.08427987 0.016581044 0.113469526
000230 28 96 d6 bc 70 0c 9b bd 13 e2 08 3e b0 02 51 3d
       -0.026194647 -0.07570732 0.1336749 0.051027954
000240 20 c9 01 3c b9 05 18 be 46 98 9a bd b5 0d 0a 3e
       0.007921487 -0.14845933 -0.07548575 0.13481791
000250 aa dd 11 be 30 91 3e bc 22 44 10 be 70 31 30 3d
       -0.14244714 -0.011631295 -0.1408849 0.043015897
000260 00 ce b5 b9 59 7d 93 bd fd 03 11 be 33 24 eb bd
       -0.00034676492 -0.072016425 -0.14161678 -0.11481514
000270 12 5f 0a be cf a6 1b be 08 64 01 be 34 9d a8 3d
       -0.13512829 -0.15200351 -0.12635815 0.08233109
000280 d4 49 3d 3d c8 86 08 be d0 93 9f bc 2e dc 12 be
       0.046212986 -0.13332665 -0.019479662 -0.14341804
000290 60 f4 b6 3b ed ce 1d 3e 6a ac 54 bd 3b 5a 00 3e
       0.005583331 0.15410967 -0.05192224 0.1253442
0002a0 db 14 13 be e0 61 d6 3b 78 79 04 3d 2e 7f 84 3d
       -0.14363424 0.0065424293 0.032342404 0.0646957
0002b0 7c 26 17 3d bc e1 e7 bd 58 d3 43 bd 26 8b 03 be
       0.036901936 -0.11322352 -0.047808975 -0.1284605
0002c0 23 c2 9c bd 5e dc ca 3d 3f b6 0b be 60 94 86 3d
       -0.07654216 0.09905313 -0.1364374 0.06571269
0002d0 45 13 0a be 2a bb ce 3d 54 c7 01 3d 2b d5 ac bd
       -0.13483913 0.100942925 0.031684235 -0.08439096
0002e0 cf d1 07 3e 60 f7 18 bd e4 aa ca bd 90 c8 51 bc
       0.1326363 -0.03734529 -0.09895876 -0.0128041655
0002f0 8a 75 a0 bd 5c 0e a0 bd 85 70 95 bd 00 e2 d7 b9
       -0.07834919 -0.07815239 -0.07296852 -0.0004117638
000300 6a 86 99 bd 50 b4 02 be 00 27 1a ba b4 94 71 3d
       -0.074963406 -0.12764096 -0.0005880445 0.058979705
000310 50 9f 8c bd 44 66 7a 3d e2 e1 d6 3d 2d 48 14 3e
       -0.06866324 0.061132684 0.104923025 0.14480658
000320 ae 8c ae 3d d8 a3 b1 3d 9a 57 c0 bd 2f 78 04 3e
       0.08522926 0.08673829 -0.09391709 0.12936471
000330 c0 cd 13 3d 04 2d 11 be ed 92 1b be e8 47 48 3d
       0.03608489 -0.14177328 -0.15192766 0.0488967
000340 0d 1e 06 3e bc a6 0f be d2 5c cf bd eb 9b 93 bd
       0.13097401 -0.14028448 -0.10125126 -0.07207473
000350 51 df 83 bd 20 bd a9 3c 4a e4 9f 3d 7b f9 9e bd
       -0.064390786 0.020720065 0.078072146 -0.077624284
000360 9e 17 af 3d 07 79 0a 3e 2b 41 11 3e 68 7a c5 bd
       0.085494265 0.13522731 0.14185016 -0.09642488
000370 da 40 7b bd 58 5f b9 3c 51 b2 00 3e a6 91 87 3d
       -0.061341144 0.022628471 0.12568022 0.06619577
000380 84 01 87 3d ba b3 5d bd 80 d8 ee bd c0 af 49 bc
       0.06592086 -0.05412648 -0.11662388 -0.0123099685
000390 98 a6 9f 3d 36 9b c5 3d 3c 76 0e bd 34 18 99 3d
       0.07795447 0.09648745 -0.034780726 0.074753195
0003a0 7d 03 11 be e5 d1 05 3e c0 06 91 bb 5a fc f3 3d
       -0.14161487 0.1306835 -0.0044258535 0.119133666
0003b0 d0 c6 9b bc c0 22 78 3c 9c e0 2b 3d 6f 14 06 3e
       -0.0190157 0.015145004 0.04196225 0.13093732
0003c0 40 8c a2 bb 5e 0c 95 bd 70 a1 08 3c 80 59 b6 3b
       -0.0049605668 -0.072777495 0.008339271 0.0055648685
0003d0 ee 09 02 be 5c b6 43 3d 12 8b f5 bd bb 20 0e be
       -0.126991 0.047781333 -0.11989416 -0.13879673
0003e0 6e 0a 96 3d ac 06 b1 3d b0 29 f7 3c 6c 52 95 3d
       0.07326208 0.08643851 0.030171245 0.07291111
0003f0 e8 d4 5b bd 1b 30 ba bd 58 a6 65 3d 3a 47 16 be
       -0.05366984 -0.09091207 0.05606684 -0.14675608

fc5.bias f4 [42]
000000 1f 1c 07 be 20 8d 28 3d ab 78 06 3e 08 fd a9 3c
       -0.13194321 0.041150212 0.13131969 0.020750538
000010 ec 2a aa bd 8b 3e b7 bd 7e e3 83 bd a0 bc 48 3d
       -0.08308968 -0.08947476 -0.06439875 0.04900801
000020 f8 9f 18 be b0 06 61 3d 20 62 95 3b 48 75 e7 bd
       -0.14904773 0.05493802 0.0045588166 -0.113016665
000030 b4 1c 3d 3d 74 da 36 bd cb 06 0c be d0 e9 4b bc
       0.04616995 -0.044641927 -0.13674466 -0.012445882
000040 87 87 8c bd e8 15 8d 3d cc 20 18 be a8 6b b3 3d
       -0.06861787 0.06888944 -0.14856261 0.08760768
000050 aa 50 0a bd 28 6f 99 3d 40 0a b9 3d 41 7f b8 bd
       -0.033768333 0.074919045 0.09035158 -0.09008647
000060 70 bd 95 bc d4 68 a4 3d 80 57 6c 3c 30 30 88 bd
       -0.018278807 0.08027807 0.0144251585 -0.06649816
000070 f8 7a a7 3c ac df 14 3d 60 ea ab bd 14 17 31 3d
       0.020444378 0.036346123 -0.08394313 0.0432349
000080 24 d2 10 3d b9 17 0d 3e d2 d3 ef 3d 28 6a 85 bc
       0.035356656 0.1377858 0.117103234 -0.01628597
000090 9d ca db bd d0 72 f7 bd b2 ed 8f bd 38 18 5c bd
       -0.10732005 -0.120824456 -0.07027759 -0.053734034
0000a0 d8 52 dc bd 18 df 72 3d
       -0.10757989 0.05929479

fc6.weight f4 [42, 42]
000000 a8 2b 9f 3c 40 6c 03 3b 00 1d 2f bd 96 bc ff 3d
       0.019429997 0.0020053536 -0.042752266 0.12487142
000010 1b 60 c0 bd 98 73 84 bc 8f 23 83 bd 1b 72 13 be
       -0.09393331 -0.0161684 -0.06403267 -0.14398997
000020 6c 9b 5b 3d aa 48 ce bd 35 72 0f 3e 80 f6 5c bb
       0.05361502 -0.10072453 0.1400841 -0.0033716261
000030 e0 d4 65 3d 30 66 a3 3c 00 80 50 37 78 05 d5 bc
       0.056111217 0.019946188 1.2427568e-05 -0.026003584
000040 22 76 c0 bd 66 e5 d1 3d 02 60 cb bd a4 a0 84 3d
       -0.09397532 0.102488324 -0.099304214 0.06475952
000050 a2 da ce 3d 8a dc ca 3d 50 aa 4c bc 50 13 3e 3d
       0.10100295 0.09905346 -0.012491778 0.046405137
000060 f8 70 5b bd f8 a5 83 bc ee 30 48 bd f8 81 c5 3c
       -0.053574532 -0.016070351 -0.048874788 0.024109825
000070 b8 07 b8 bc 60 22 f2 3b 4b 4f 05 3e 80 e1 44 bc
       -0.022464618 0.0073893517 0.13018529 -0.012016654
000080 80 8b 33 bd 57 76 17 be ab 81 03 3e 10 b7 f9 bd
       -0.04383421 -0.14791237 0.12842433 -0.121931195
000090 20 33 47 3c 94 95 6b 3d 30 d1 df bd 8c ce 12 be
       0.012158185 0.057515696 -0.10928571 -0.14336604
0000a0 0c 74 b2 3d 4a d7 c7 bd 80 0f 0d 3d 8e 9c 12 bd
       0.087135404 -0.0975786 0.03443861 -0.035793833
0000b0 68 8f f0 3c d0 de 8c 3c 66 7b 9c 3d 6f 46 10 be
       0.029365256 0.017196089 0.07640724 -0.14089368
0000c0 15 76 1d be e6 33 d5 3d 53 45 12 3e 26 8f 04 bd
       -0.15377076 0.104102895 0.14284258 -0.03236308
0000d0 94 ce 82 3d 4f c4 12 be 1b b9 b3 bd 1a 42 fc 3d
       0.06387058 -0.14332698 -0.087755404 0.12317295
0000e0 e8 f6 59 3d e7 82 08 3e 1a d7 e2 bd 88 24 a7 bd
       0.053213984 0.13331185 -0.110761836 -0.08161265
0000f0 e3 e9 ca bd 88 f8 8e 3c a6 6f f7 bd cc f6 fd bc
       -0.099078916 0.017452493 -0.12081842 -0.031001471
000100 60 7e 1c bd bf 33 89 bd 60 ed a4 3b bd 7b 05 3e
       -0.038206458 -0.06699323 0.00503318 0.13035484
000110 fa 18 13 be c0 50 03 bb 7c 7a 59 3d e0 56 82 3c
       -0.14364997 -0.0020037144 0.053095326 0.015910566
000120 20 39 5c bd 48 48 4e bd 7f 5a 17 3e 12 74 e2 3d
       -0.053765416 -0.0503619 0.14780615 0.11057295
000130 0e 1a 19 be c0 57 3f 3c 12 ad d1 3d 6a 98 ee 3d
       -0.14951345 0.011678636 0.10238089 0.116501644
000140 c6 64 07 bd b9 ce 0a 3e c2 ac f5 3d c0 8b 53 bc
       -0.03305509 0.13555421 0.119958416 -0.012911737
000150 c8 24 00 3d 29 ee 19 be 2c 35 13 be 18 f6 e0 3c
       0.031285077 -0.15032257 -0.14375752 0.027461097
000160 61 1d f5 bd 22 5c f3 3d 07 57 18 3e cc 41 b6 3d
       -0.11968494 0.11882807 0.14876948 0.088992685
000170 3c 13 b7 3d 33 e1 84 bd 3c fa 22 3d ee 8d 84 bd
       0.089392155 -0.06488266 0.039789423 -0.064723834
000180 e1 57 0d 3e 51 40 84 bd b8 43 fb 3c 88 e1 f6 3c
       0.13803054 -0.0645758 0.03067194 0.030136839
000190 2e f3 6a bd 14 cc 06 bd 28 f4 c2 3c 81 da 19 be
       -0.05736082 -0.032909468 0.023798063 -0.15024759
0001a0 80 f4 ca bc 84 74 34 3d 76 53 7f bd d0 0a 9e 3c
       -0.02477479 0.04405643 -0.062335454 0.019292265
0001b0 8e b5 ff 3d de 9f f5 3d 74 2f 9a 3d 50 51 0d 3d
       0.12485801 0.11993383 0.07528582 0.034501374
0001c0 90 a9 a8 bc ec 52 54 bd 44 93 07 3d 24 85 63 bd
       -0.020588666 -0.051836893 0.033099428 -0.055546895
0001d0 e8 0b 16 3d 50 32 50 3d 4b 3a e3 bd d0 bf 4a bc
       0.03663245 0.05082923 -0.11095103 -0.012374833
0001e0 37 8c 08 be f8 97 fd bc 4c eb 5d 3d e0 d3 11 be
       -0.13334738 -0.030956253 0.054179475 -0.1424098
0001f0 f4 c7 09 bd e2 49 c1 bd 3a a5 ea 3d 9e 50 c5 3d
       -0.033637956 -0.0943792 0.11457296 0.09634517
000200 98 08 b7 3d 2e 65 87 3d 0c 48 02 be 00 da cc bd
       0.08937186 0.06611095 -0.12722796 -0.10002518
000210 16 0c f8 3d 94 4d 12 be 0a 3d db bd cc bb 0f 3d
       0.1211168 -0.14287406 -0.10705002 0.035091206
000220 d5 b3 10 3e f6 eb bf 3d 58 50 85 bd f6 7a 91 3d
       0.141311 0.09371178 -0.06509465 0.07103531
000230 8a 79 e0 bd 4e a3 d3 3d c8 3d 1c 3d 42 34 06 be
       -0.10960682 0.10333882 0.038144857 -0.13105872
000240 4a 7a fa 3d ac f9 c1 3d 36 2c cb 3d 6e f9 e2 3d
       0.12230356 0.09471449 0.09920542 0.11082731
000250 16 80 1a be f1 de af bd 61 5e b7 bd a8 90 03 3d
       -0.15087923 -0.085874446 -0.08953548 0.032120377
000260 e0 0b a9 3c 68 0d 44 3d 2a e4 31 bd d2 bb 89 3d
       0.020635545 0.047864348 -0.043430485 0.06725277
000270 58 86 bd 3c 7c 1d 2b 3d c4 5a 88 3d 0a 2e ed 3d
       0.02313535 0.041776165 0.06657937 0.11581047
000280 5a a0 fc 3d bb f1 fc bd 64 ae 06 be 23 d0 8d bd
       0.12335272 -0.12350794 -0.13152462 -0.069244646
000290 52 39 41 bd 40 7c 2b 3b 24 99 14 3d f0 82 0d bc
       -0.047173806 0.0026166588 0.03627886 -0.008637175
0002a0 a0 17 b3 bc 49 8c 1a 3e e0 7e 24 3c 5f f6 12 be
       -0.021861851 0.15092577 0.010040015 -0.14351796
0002b0 48 14 98 bc 80 b7 ac 3a 80 3d c7 bc cc 34 2e 3d
       -0.018564358 0.0013177246 -0.024321318 0.04253082
0002c0 00 01 e3 3c f8 40 f7 3c c6 90 0c bd 20 92 25 3d
       0.027710438 0.030182347 -0.034317754 0.04042256
0002d0 d0 b8 07 3c 38 63 e9 bc 20 46 6f bc 90 38 ca bd
       0.008283809 -0.028489694 -0.014604121 -0.0987407
0002e0 af 74 0b 3e 7f 5c 9e bd 7b ec a6 bd 6c 92 04 3d
       0.1361873 -0.07732486 -0.08150574 0.0323662
0002f0 95 a9 8a bd 2a 37 88 3d c0 b3 ab bc db 3f 16 3e
       -0.067706265 0.06651147 -0.020959735 0.14672796
000300 20 b8 8e 3b 9a 96 d6 3d 71 ea 0f 3e ee 8f b7 bd
       0.0043554455 0.10477944 0.14054276 -0.08962999
000310 56 6d 10 be 4c 12 43 3d 4c 16 0b be fc 89 19 3d
       -0.14104208 0.04762487 -0.13582724 0.037485108
000320 9a b9 ef 3d 50 4d 15 be 47 eb b8 bd 28 14 a5 3d
       0.117053226 -0.14580274 -0.090292506 0.08060485
000330 c1 aa 1d be e0 65 cc bc 60 51 ed bb a0 1a 8e 3c
       -0.15397169 -0.024950922 -0.0072423667 0.01734668
000340 b3 ea 02 3e 07 83 fe bd 72 85 3f bd c0 04 c1 bd
       0.12784843 -0.12427335 -0.046758123 -0.09424734
000350 40 7b 56 bd d1 0a 11 be 0e 01 be 3d 8a 8d d4 3d
       -0.052363634 -0.14164282 0.09277545 0.10378559
000360 e8 98 8e 3d 88 40 60 3d 70 78 d0 3c 70 3c af 3d
       0.06962758 0.05474904 0.025448054 0.085564494
000370 b3 c7 f6 bd ad 86 1c be c0 85 08 3d e5 53 0c be
       -0.12049808 -0.1528575 0.03333068 -0.13703878
000380 88 a5 8c bc dc 63 11 bd 46 79 da 3d da 53 e7 3d
       -0.017168775 -0.035495624 0.10667662 0.1129529
000390 d4 8e 87 3d 40 ea 1f bc 2f 9b ed bd a7 ee d2 bd
       0.06619039 -0.009760439 -0.116018645 -0.102994256
0003a0 fa be c9 3d 3a 4e b5 bd bf e7 03 3e 8c ea eb bd
       0.09850879 -0.08852811 0.12881373 -0.11519346
0003b0 72 57 e9 3d df 96 13 be f2 46 d2 3d 36 c3 e2 3d
       0.11393632 -0.14413022 0.10267438 0.1107239
0003c0 ca 54 ea 3d 1b 6b 02 be 20 d8 82 3c b6 17 3e bd
       0.114419535 -0.1273617 0.015972197 -0.04640933
0003d0 bf 0b 10 3e 30 c5 c2 3d e7 21 03 be b2 b7 a8 3d
       0.14066981 0.09510267 -0.12805901 0.08238162
0003e0 81 43 e1 bd 40 5d af 3c f4 bc ab 3d 39 19 d1 bd
       -0.109992035 0.02140677 0.08385649 -0.10209889
0003f0 3e c8 9e 3d d0 d2 b3 bc 48 ed c6 bc 98 5f 09 3d
       0.07753037 -0.02195111 -0.024283066 0.03353843

fc6.bias f4 [42]
000000 f0 1a 18 bd 80 82 83 ba 14 d8 12 be d6 f3 ee 3d
       -0.037135065 -0.0010033399 -0.1434024 0.11667602
000010 f8 ff d7 bd 38 b4 69 3d f0 70 40 bd 8e 8e eb bd
       -0.10546869 0.057056636 -0.046982706 -0.115017995
000020 a8 d1 eb bc bc 2b 57 3d ac 80 2e 3d 5c 4c 11 be
       -0.028786495 0.052531943 0.04260318 -0.14189285
000030 90 ab 9a 3d 0c 35 9e 3d 98 f5 95 3d 4e b9 81 3d
       0.07552254 0.07724962 0.07322234 0.06334172
000040 38 9d c8 3c 7e c5 c1 3d bc e7 1e 3d 85 cb 0f be
       0.02448903 0.09461497 0.038795218 -0.1404248
000050 7b d8 18 3e 3e 8b c6 3d 92 d2 e5 bd 70 33 ca bc
       0.14926331 0.09694527 -0.11221804 -0.02468273
000060 d8 5d c2 bc 7c bd 30 3d 76 9e 11 be 24 41 05 3d
       -0.023726389 0.043149456 -0.14220604 0.032532826
000070 2a 6a 91 3d 86 32 b1 3d d0 24 4b bc 10 95 21 3d
       0.07100327 0.08652215 -0.0123989135 0.039448798
000080 40 a4 33 3d f8 d1 b5 3c a0 b0 31 bc 14 9a 13 bd
       0.043857813 0.022194847 -0.010845333 -0.036035612
000090 8e cf 85 3d 28 0c ab bc 4c f4 fd bd b2 fc f4 3d
       0.065337285 -0.02087982 -0.124001116 0.1196226
0000a0 85 a6 10 be 68 ea 9f bc
       -0.14126022 -0.019520953
